{
    "format":"graph-model",
    "generatedBy":"2.10.0",
    "convertedBy":"TensorFlow.js Converter v4.0.0",
    "signature":{
      "inputs":{
        "images":{
          "name":"images:0",
          "dtype":"DT_FLOAT",
          "tensorShape":{
            "dim":[
              {
                "size":"1"
              },
              {
                "size":"3"
              },
              {
                "size":"640"
              },
              {
                "size":"640"
              }
            ]
          }
        }
      },
      "outputs":{
        "output":{
          "name":"Identity:0",
          "dtype":"DT_FLOAT",
          "tensorShape":{
            "dim":[
              {
                "size":"1"
              },
              {
                "size":"25200"
              },
              {
                "size":"85"
              }
            ]
          }
        }
      }
    },
    "modelTopology":{
      "node":[
        {
          "name":"PartitionedCall/onnx_tf_prefix_/model.77/Constant_1",
          "op":"Const",
          "attr":{
            "dtype":{
              "type":"DT_FLOAT"
            },
            "value":{
              "tensor":{
                "dtype":"DT_FLOAT",
                "tensorShape":{

                }
              }
            }
          }
        },
        {
          "name":"PartitionedCall/onnx_tf_prefix_/model.77/Constant_2",
          "op":"Const",
          "attr":{
            "dtype":{
              "type":"DT_FLOAT"
            },
            "value":{
              "tensor":{
                "dtype":"DT_FLOAT",
                "tensorShape":{
                  "dim":[
                    {
                      "size":"1"
                    },
                    {
                      "size":"1"
                    },
                    {
                      "size":"80"
                    },
                    {
                      "size":"80"
                    },
                    {
                      "size":"2"
                    }
                  ]
                }
              }
            }
          }
        },
        {
          "name":"PartitionedCall/onnx_tf_prefix_/model.77/Constant_4",
          "op":"Const",
          "attr":{
            "dtype":{
              "type":"DT_FLOAT"
            },
            "value":{
              "tensor":{
                "dtype":"DT_FLOAT",
                "tensorShape":{
                  "dim":[
                    {
                      "size":"1"
                    },
                    {
                      "size":"3"
                    },
                    {
                      "size":"1"
                    },
                    {
                      "size":"1"
                    },
                    {
                      "size":"2"
                    }
                  ]
                }
              }
            }
          }
        },
        {
          "name":"PartitionedCall/Const_22",
          "op":"Const",
          "attr":{
            "value":{
              "tensor":{
                "dtype":"DT_INT32",
                "tensorShape":{
                  "dim":[
                    {
                      "size":"4"
                    },
                    {
                      "size":"2"
                    }
                  ]
                }
              }
            },
            "dtype":{
              "type":"DT_INT32"
            }
          }
        },
        {
          "name":"PartitionedCall/transpose_173/perm",
          "op":"Const",
          "attr":{
            "dtype":{
              "type":"DT_INT32"
            },
            "value":{
              "tensor":{
                "dtype":"DT_INT32",
                "tensorShape":{
                  "dim":[
                    {
                      "size":"4"
                    }
                  ]
                }
              }
            }
          }
        },
        {
          "name":"PartitionedCall/split_52",
          "op":"Const",
          "attr":{
            "value":{
              "tensor":{
                "dtype":"DT_FLOAT",
                "tensorShape":{
                  "dim":[
                    {
                      "size":"3"
                    },
                    {
                      "size":"3"
                    },
                    {
                      "size":"64"
                    },
                    {
                      "size":"128"
                    }
                  ]
                }
              }
            },
            "dtype":{
              "type":"DT_FLOAT"
            }
          }
        },
        {
          "name":"unknown_104",
          "op":"Const",
          "attr":{
            "dtype":{
              "type":"DT_FLOAT"
            },
            "value":{
              "tensor":{
                "dtype":"DT_FLOAT",
                "tensorShape":{
                  "dim":[
                    {
                      "size":"128"
                    }
                  ]
                }
              }
            }
          }
        },
        {
          "name":"PartitionedCall/transpose_174/perm",
          "op":"Const",
          "attr":{
            "value":{
              "tensor":{
                "dtype":"DT_INT32",
                "tensorShape":{
                  "dim":[
                    {
                      "size":"4"
                    }
                  ]
                }
              }
            },
            "dtype":{
              "type":"DT_INT32"
            }
          }
        },
        {
          "name":"PartitionedCall/transpose_182/perm",
          "op":"Const",
          "attr":{
            "value":{
              "tensor":{
                "dtype":"DT_INT32",
                "tensorShape":{
                  "dim":[
                    {
                      "size":"4"
                    }
                  ]
                }
              }
            },
            "dtype":{
              "type":"DT_INT32"
            }
          }
        },
        {
          "name":"PartitionedCall/split_55",
          "op":"Const",
          "attr":{
            "dtype":{
              "type":"DT_FLOAT"
            },
            "value":{
              "tensor":{
                "dtype":"DT_FLOAT",
                "tensorShape":{
                  "dim":[
                    {
                      "size":"1"
                    },
                    {
                      "size":"1"
                    },
                    {
                      "size":"128"
                    },
                    {
                      "size":"255"
                    }
                  ]
                }
              }
            }
          }
        },
        {
          "name":"unknown_110",
          "op":"Const",
          "attr":{
            "dtype":{
              "type":"DT_FLOAT"
            },
            "value":{
              "tensor":{
                "dtype":"DT_FLOAT",
                "tensorShape":{
                  "dim":[
                    {
                      "size":"255"
                    }
                  ]
                }
              }
            }
          }
        },
        {
          "name":"PartitionedCall/transpose_183/perm",
          "op":"Const",
          "attr":{
            "dtype":{
              "type":"DT_INT32"
            },
            "value":{
              "tensor":{
                "dtype":"DT_INT32",
                "tensorShape":{
                  "dim":[
                    {
                      "size":"4"
                    }
                  ]
                }
              }
            }
          }
        },
        {
          "name":"PartitionedCall/onnx_tf_prefix_/model.77/Constant",
          "op":"Const",
          "attr":{
            "value":{
              "tensor":{
                "dtype":"DT_INT64",
                "tensorShape":{
                  "dim":[
                    {
                      "size":"5"
                    }
                  ]
                }
              }
            },
            "dtype":{
              "type":"DT_INT64"
            }
          }
        },
        {
          "name":"PartitionedCall/Where",
          "op":"Const",
          "attr":{
            "value":{
              "tensor":{
                "dtype":"DT_INT64",
                "tensorShape":{
                  "dim":[
                    {
                      
                    },
                    {
                      "size":"1"
                    }
                  ]
                }
              }
            },
            "dtype":{
              "type":"DT_INT64"
            }
          }
        },
        {
          "name":"PartitionedCall/Cast_4",
          "op":"Const",
          "attr":{
            "value":{
              "tensor":{
                "dtype":"DT_INT64",
                "tensorShape":{
                  "dim":[
                    {
                      "size":"1"
                    }
                  ]
                }
              }
            },
            "dtype":{
              "type":"DT_INT64"
            }
          }
        },
        {
          "name":"PartitionedCall/GatherV2",
          "op":"Const",
          "attr":{
            "dtype":{
              "type":"DT_INT64"
            },
            "value":{
              "tensor":{
                "dtype":"DT_INT64",
                "tensorShape":{
                  "dim":[
                    {
                    }
                  ]
                }
              }
            }
          }
        },
        {
          "name":"PartitionedCall/zeros",
          "op":"Const",
          "attr":{
            "value":{
              "tensor":{
                "dtype":"DT_INT64",
                "tensorShape":{

                }
              }
            },
            "dtype":{
              "type":"DT_INT64"
            }
          }
        },
        {
          "name":"PartitionedCall/onnx_tf_prefix_/model.77/Transpose/perm",
          "op":"Const",
          "attr":{
            "dtype":{
              "type":"DT_INT32"
            },
            "value":{
              "tensor":{
                "dtype":"DT_INT32",
                "tensorShape":{
                  "dim":[
                    {
                      "size":"5"
                    }
                  ]
                }
              }
            }
          }
        },
        {
          "name":"PartitionedCall/Const_26",
          "op":"Const",
          "attr":{
            "value":{
              "tensor":{
                "dtype":"DT_INT32",
                "tensorShape":{
                  "dim":[
                    {
                      "size":"3"
                    }
                  ]
                }
              }
            },
            "dtype":{
              "type":"DT_INT32"
            }
          }
        },
        {
          "name":"PartitionedCall/onnx_tf_prefix_/model.77/Split/split_dim",
          "op":"Const",
          "attr":{
            "value":{
              "tensor":{
                "dtype":"DT_INT32",
                "tensorShape":{
                  
                }
              }
            },
            "dtype":{
              "type":"DT_INT32"
            }
          }
        },
        {
          "name":"PartitionedCall/onnx_tf_prefix_/model.77/Concat/axis",
          "op":"Const",
          "attr":{
            "value":{
              "tensor":{
                "dtype":"DT_INT32",
                "tensorShape":{
                  
                }
              }
            },
            "dtype":{
              "type":"DT_INT32"
            }
          }
        },
        {
          "name":"PartitionedCall/onnx_tf_prefix_/model.77/Constant_5",
          "op":"Const",
          "attr":{
            "dtype":{
              "type":"DT_INT64"
            },
            "value":{
              "tensor":{
                "dtype":"DT_INT64",
                "tensorShape":{
                  "dim":[
                    {
                      "size":"3"
                    }
                  ]
                }
              }
            }
          }
        },
        {
          "name":"PartitionedCall/Where_1",
          "op":"Const",
          "attr":{
            "dtype":{
              "type":"DT_INT64"
            },
            "value":{
              "tensor":{
                "dtype":"DT_INT64",
                "tensorShape":{
                  "dim":[
                    {
                      
                    },
                    {
                      "size":"1"
                    }
                  ]
                }
              }
            }
          }
        },
        {
          "name":"PartitionedCall/Cast_5",
          "op":"Const",
          "attr":{
            "value":{
              "tensor":{
                "dtype":"DT_INT64",
                "tensorShape":{
                  "dim":[
                    {
                      "size":"1"
                    }
                  ]
                }
              }
            },
            "dtype":{
              "type":"DT_INT64"
            }
          }
        },
        {
          "name":"PartitionedCall/GatherV2_1",
          "op":"Const",
          "attr":{
            "value":{
              "tensor":{
                "dtype":"DT_INT64",
                "tensorShape":{
                  "dim":[
                    {
                      
                    }
                  ]
                }
              }
            },
            "dtype":{
              "type":"DT_INT64"
            }
          }
        },
        {
          "name":"PartitionedCall/zeros_1",
          "op":"Const",
          "attr":{
            "dtype":{
              "type":"DT_INT64"
            },
            "value":{
              "tensor":{
                "dtype":"DT_INT64",
                "tensorShape":{
                  
                }
              }
            }
          }
        },
        {
          "name":"PartitionedCall/onnx_tf_prefix_/model.77/Constant_7",
          "op":"Const",
          "attr":{
            "value":{
              "tensor":{
                "dtype":"DT_FLOAT",
                "tensorShape":{
                  
                }
              }
            },
            "dtype":{
              "type":"DT_FLOAT"
            }
          }
        },
        {
          "name":"PartitionedCall/onnx_tf_prefix_/model.77/Constant_8",
          "op":"Const",
          "attr":{
            "dtype":{
              "type":"DT_FLOAT"
            },
            "value":{
              "tensor":{
                "dtype":"DT_FLOAT",
                "tensorShape":{
                  "dim":[
                    {
                      "size":"1"
                    },
                    {
                      "size":"1"
                    },
                    {
                      "size":"40"
                    },
                    {
                      "size":"40"
                    },
                    {
                      "size":"2"
                    }
                  ]
                }
              }
            }
          }
        },
        {
          "name":"PartitionedCall/onnx_tf_prefix_/model.77/Constant_10",
          "op":"Const",
          "attr":{
            "dtype":{
              "type":"DT_FLOAT"
            },
            "value":{
              "tensor":{
                "dtype":"DT_FLOAT",
                "tensorShape":{
                  "dim":[
                    {
                      "size":"1"
                    },
                    {
                      "size":"3"
                    },
                    {
                      "size":"1"
                    },
                    {
                      "size":"1"
                    },
                    {
                      "size":"2"
                    }
                  ]
                }
              }
            }
          }
        },
        {
          "name":"PartitionedCall/Const_23",
          "op":"Const",
          "attr":{
            "dtype":{
              "type":"DT_INT32"
            },
            "value":{
              "tensor":{
                "dtype":"DT_INT32",
                "tensorShape":{
                  "dim":[
                    {
                      "size":"4"
                    },
                    {
                      "size":"2"
                    }
                  ]
                }
              }
            }
          }
        },
        {
          "name":"PartitionedCall/transpose_176/perm",
          "op":"Const",
          "attr":{
            "dtype":{
              "type":"DT_INT32"
            },
            "value":{
              "tensor":{
                "dtype":"DT_INT32",
                "tensorShape":{
                  "dim":[
                    {
                      "size":"4"
                    }
                  ]
                }
              }
            }
          }
        },
        {
          "name":"PartitionedCall/split_53",
          "op":"Const",
          "attr":{
            "value":{
              "tensor":{
                "dtype":"DT_FLOAT",
                "tensorShape":{
                  "dim":[
                    {
                      "size":"3"
                    },
                    {
                      "size":"3"
                    },
                    {
                      "size":"128"
                    },
                    {
                      "size":"256"
                    }
                  ]
                }
              }
            },
            "dtype":{
              "type":"DT_FLOAT"
            }
          }
        },
        {
          "name":"unknown_106",
          "op":"Const",
          "attr":{
            "dtype":{
              "type":"DT_FLOAT"
            },
            "value":{
              "tensor":{
                "dtype":"DT_FLOAT",
                "tensorShape":{
                  "dim":[
                    {
                      "size":"256"
                    }
                  ]
                }
              }
            }
          }
        },
        {
          "name":"PartitionedCall/transpose_177/perm",
          "op":"Const",
          "attr":{
            "value":{
              "tensor":{
                "dtype":"DT_INT32",
                "tensorShape":{
                  "dim":[
                    {
                      "size":"4"
                    }
                  ]
                }
              }
            },
            "dtype":{
              "type":"DT_INT32"
            }
          }
        },
        {
          "name":"PartitionedCall/transpose_185/perm",
          "op":"Const",
          "attr":{
            "value":{
              "tensor":{
                "dtype":"DT_INT32",
                "tensorShape":{
                  "dim":[
                    {
                      "size":"4"
                    }
                  ]
                }
              }
            },
            "dtype":{
              "type":"DT_INT32"
            }
          }
        },
        {
          "name":"PartitionedCall/split_56",
          "op":"Const",
          "attr":{
            "dtype":{
              "type":"DT_FLOAT"
            },
            "value":{
              "tensor":{
                "dtype":"DT_FLOAT",
                "tensorShape":{
                  "dim":[
                    {
                      "size":"1"
                    },
                    {
                      "size":"1"
                    },
                    {
                      "size":"256"
                    },
                    {
                      "size":"255"
                    }
                  ]
                }
              }
            }
          }
        },
        {
          "name":"unknown_112",
          "op":"Const",
          "attr":{
            "value":{
              "tensor":{
                "dtype":"DT_FLOAT",
                "tensorShape":{
                  "dim":[
                    {
                      "size":"255"
                    }
                  ]
                }
              }
            },
            "dtype":{
              "type":"DT_FLOAT"
            }
          }
        },
        {
          "name":"PartitionedCall/transpose_186/perm",
          "op":"Const",
          "attr":{
            "dtype":{
              "type":"DT_INT32"
            },
            "value":{
              "tensor":{
                "dtype":"DT_INT32",
                "tensorShape":{
                  "dim":[
                    {
                      "size":"4"
                    }
                  ]
                }
              }
            }
          }
        },
        {
          "name":"PartitionedCall/onnx_tf_prefix_/model.77/Constant_6",
          "op":"Const",
          "attr":{
            "value":{
              "tensor":{
                "dtype":"DT_INT64",
                "tensorShape":{
                  "dim":[
                    {
                      "size":"5"
                    }
                  ]
                }
              }
            },
            "dtype":{
              "type":"DT_INT64"
            }
          }
        },
        {
          "name":"PartitionedCall/Where_2",
          "op":"Const",
          "attr":{
            "value":{
              "tensor":{
                "dtype":"DT_INT64",
                "tensorShape":{
                  "dim":[
                    {
                      
                    },
                    {
                      "size":"1"
                    }
                  ]
                }
              }
            },
            "dtype":{
              "type":"DT_INT64"
            }
          }
        },
        {
          "name":"PartitionedCall/Cast_6",
          "op":"Const",
          "attr":{
            "dtype":{
              "type":"DT_INT64"
            },
            "value":{
              "tensor":{
                "dtype":"DT_INT64",
                "tensorShape":{
                  "dim":[
                    {
                      "size":"1"
                    }
                  ]
                }
              }
            }
          }
        },
        {
          "name":"PartitionedCall/GatherV2_2",
          "op":"Const",
          "attr":{
            "value":{
              "tensor":{
                "dtype":"DT_INT64",
                "tensorShape":{
                  "dim":[
                    {
                      
                    }
                  ]
                }
              }
            },
            "dtype":{
              "type":"DT_INT64"
            }
          }
        },
        {
          "name":"PartitionedCall/zeros_2",
          "op":"Const",
          "attr":{
            "dtype":{
              "type":"DT_INT64"
            },
            "value":{
              "tensor":{
                "dtype":"DT_INT64",
                "tensorShape":{
                  
                }
              }
            }
          }
        },
        {
          "name":"PartitionedCall/onnx_tf_prefix_/model.77/Transpose_1/perm",
          "op":"Const",
          "attr":{
            "value":{
              "tensor":{
                "dtype":"DT_INT32",
                "tensorShape":{
                  "dim":[
                    {
                      "size":"5"
                    }
                  ]
                }
              }
            },
            "dtype":{
              "type":"DT_INT32"
            }
          }
        },
        {
          "name":"PartitionedCall/Const_29",
          "op":"Const",
          "attr":{
            "value":{
              "tensor":{
                "dtype":"DT_INT32",
                "tensorShape":{
                  "dim":[
                    {
                      "size":"3"
                    }
                  ]
                }
              }
            },
            "dtype":{
              "type":"DT_INT32"
            }
          }
        },
        {
          "name":"PartitionedCall/onnx_tf_prefix_/model.77/Split_1/split_dim",
          "op":"Const",
          "attr":{
            "dtype":{
              "type":"DT_INT32"
            },
            "value":{
              "tensor":{
                "dtype":"DT_INT32",
                "tensorShape":{
                  
                }
              }
            }
          }
        },
        {
          "name":"PartitionedCall/onnx_tf_prefix_/model.77/Concat_1/axis",
          "op":"Const",
          "attr":{
            "value":{
              "tensor":{
                "dtype":"DT_INT32",
                "tensorShape":{
                  
                }
              }
            },
            "dtype":{
              "type":"DT_INT32"
            }
          }
        },
        {
          "name":"PartitionedCall/onnx_tf_prefix_/model.77/Constant_11",
          "op":"Const",
          "attr":{
            "dtype":{
              "type":"DT_INT64"
            },
            "value":{
              "tensor":{
                "dtype":"DT_INT64",
                "tensorShape":{
                  "dim":[
                    {
                      "size":"3"
                    }
                  ]
                }
              }
            }
          }
        },
        {
          "name":"PartitionedCall/Where_3",
          "op":"Const",
          "attr":{
            "dtype":{
              "type":"DT_INT64"
            },
            "value":{
              "tensor":{
                "dtype":"DT_INT64",
                "tensorShape":{
                  "dim":[
                    {
                      
                    },
                    {
                      "size":"1"
                    }
                  ]
                }
              }
            }
          }
        },
        {
          "name":"PartitionedCall/Cast_7",
          "op":"Const",
          "attr":{
            "value":{
              "tensor":{
                "dtype":"DT_INT64",
                "tensorShape":{
                  "dim":[
                    {
                      "size":"1"
                    }
                  ]
                }
              }
            },
            "dtype":{
              "type":"DT_INT64"
            }
          }
        },
        {
          "name":"PartitionedCall/GatherV2_3",
          "op":"Const",
          "attr":{
            "value":{
              "tensor":{
                "dtype":"DT_INT64",
                "tensorShape":{
                  "dim":[
                    {
                      
                    }
                  ]
                }
              }
            },
            "dtype":{
              "type":"DT_INT64"
            }
          }
        },
        {
          "name":"PartitionedCall/zeros_3",
          "op":"Const",
          "attr":{
            "value":{
              "tensor":{
                "dtype":"DT_INT64",
                "tensorShape":{
                  
                }
              }
            },
            "dtype":{
              "type":"DT_INT64"
            }
          }
        },
        {
          "name":"PartitionedCall/onnx_tf_prefix_/model.77/Constant_13",
          "op":"Const",
          "attr":{
            "value":{
              "tensor":{
                "dtype":"DT_FLOAT",
                "tensorShape":{
                  
                }
              }
            },
            "dtype":{
              "type":"DT_FLOAT"
            }
          }
        },
        {
          "name":"PartitionedCall/onnx_tf_prefix_/model.77/Constant_14",
          "op":"Const",
          "attr":{
            "value":{
              "tensor":{
                "dtype":"DT_FLOAT",
                "tensorShape":{
                  "dim":[
                    {
                      "size":"1"
                    },
                    {
                      "size":"1"
                    },
                    {
                      "size":"20"
                    },
                    {
                      "size":"20"
                    },
                    {
                      "size":"2"
                    }
                  ]
                }
              }
            },
            "dtype":{
              "type":"DT_FLOAT"
            }
          }
        },
        {
          "name":"PartitionedCall/onnx_tf_prefix_/model.77/Constant_16",
          "op":"Const",
          "attr":{
            "value":{
              "tensor":{
                "dtype":"DT_FLOAT",
                "tensorShape":{
                  "dim":[
                    {
                      "size":"1"
                    },
                    {
                      "size":"3"
                    },
                    {
                      "size":"1"
                    },
                    {
                      "size":"1"
                    },
                    {
                      "size":"2"
                    }
                  ]
                }
              }
            },
            "dtype":{
              "type":"DT_FLOAT"
            }
          }
        },
        {
          "name":"PartitionedCall/Const_21",
          "op":"Const",
          "attr":{
            "value":{
              "tensor":{
                "dtype":"DT_INT32",
                "tensorShape":{
                  "dim":[
                    {
                      "size":"4"
                    },
                    {
                      "size":"2"
                    }
                  ]
                }
              }
            },
            "dtype":{
              "type":"DT_INT32"
            }
          }
        },
        {
          "name":"PartitionedCall/transpose_167/perm",
          "op":"Const",
          "attr":{
            "dtype":{
              "type":"DT_INT32"
            },
            "value":{
              "tensor":{
                "dtype":"DT_INT32",
                "tensorShape":{
                  "dim":[
                    {
                      "size":"4"
                    }
                  ]
                }
              }
            }
          }
        },
        {
          "name":"PartitionedCall/split_50",
          "op":"Const",
          "attr":{
            "value":{
              "tensor":{
                "dtype":"DT_FLOAT",
                "tensorShape":{
                  "dim":[
                    {
                      "size":"3"
                    },
                    {
                      "size":"3"
                    },
                    {
                      "size":"128"
                    },
                    {
                      "size":"128"
                    }
                  ]
                }
              }
            },
            "dtype":{
              "type":"DT_FLOAT"
            }
          }
        },
        {
          "name":"unknown_100",
          "op":"Const",
          "attr":{
            "dtype":{
              "type":"DT_FLOAT"
            },
            "value":{
              "tensor":{
                "dtype":"DT_FLOAT",
                "tensorShape":{
                  "dim":[
                    {
                      "size":"128"
                    }
                  ]
                }
              }
            }
          }
        },
        {
          "name":"PartitionedCall/transpose_168/perm",
          "op":"Const",
          "attr":{
            "dtype":{
              "type":"DT_INT32"
            },
            "value":{
              "tensor":{
                "dtype":"DT_INT32",
                "tensorShape":{
                  "dim":[
                    {
                      "size":"4"
                    }
                  ]
                }
              }
            }
          }
        },
        {
          "name":"PartitionedCall/Const_20",
          "op":"Const",
          "attr":{
            "value":{
              "tensor":{
                "dtype":"DT_INT32",
                "tensorShape":{
                  "dim":[
                    {
                      "size":"4"
                    },
                    {
                      "size":"2"
                    }
                  ]
                }
              }
            },
            "dtype":{
              "type":"DT_INT32"
            }
          }
        },
        {
          "name":"PartitionedCall/transpose_164/perm",
          "op":"Const",
          "attr":{
            "dtype":{
              "type":"DT_INT32"
            },
            "value":{
              "tensor":{
                "dtype":"DT_INT32",
                "tensorShape":{
                  "dim":[
                    {
                      "size":"4"
                    }
                  ]
                }
              }
            }
          }
        },
        {
          "name":"PartitionedCall/split_49",
          "op":"Const",
          "attr":{
            "dtype":{
              "type":"DT_FLOAT"
            },
            "value":{
              "tensor":{
                "dtype":"DT_FLOAT",
                "tensorShape":{
                  "dim":[
                    {
                      "size":"3"
                    },
                    {
                      "size":"3"
                    },
                    {
                      "size":"128"
                    },
                    {
                      "size":"128"
                    }
                  ]
                }
              }
            }
          }
        },
        {
          "name":"unknown_98",
          "op":"Const",
          "attr":{
            "dtype":{
              "type":"DT_FLOAT"
            },
            "value":{
              "tensor":{
                "dtype":"DT_FLOAT",
                "tensorShape":{
                  "dim":[
                    {
                      "size":"128"
                    }
                  ]
                }
              }
            }
          }
        },
        {
          "name":"PartitionedCall/transpose_165/perm",
          "op":"Const",
          "attr":{
            "value":{
              "tensor":{
                "dtype":"DT_INT32",
                "tensorShape":{
                  "dim":[
                    {
                      "size":"4"
                    }
                  ]
                }
              }
            },
            "dtype":{
              "type":"DT_INT32"
            }
          }
        },
        {
          "name":"PartitionedCall/transpose_161/perm",
          "op":"Const",
          "attr":{
            "value":{
              "tensor":{
                "dtype":"DT_INT32",
                "tensorShape":{
                  "dim":[
                    {
                      "size":"4"
                    }
                  ]
                }
              }
            },
            "dtype":{
              "type":"DT_INT32"
            }
          }
        },
        {
          "name":"PartitionedCall/split_48",
          "op":"Const",
          "attr":{
            "dtype":{
              "type":"DT_FLOAT"
            },
            "value":{
              "tensor":{
                "dtype":"DT_FLOAT",
                "tensorShape":{
                  "dim":[
                    {
                      "size":"1"
                    },
                    {
                      "size":"1"
                    },
                    {
                      "size":"512"
                    },
                    {
                      "size":"128"
                    }
                  ]
                }
              }
            }
          }
        },
        {
          "name":"unknown_96",
          "op":"Const",
          "attr":{
            "dtype":{
              "type":"DT_FLOAT"
            },
            "value":{
              "tensor":{
                "dtype":"DT_FLOAT",
                "tensorShape":{
                  "dim":[
                    {
                      "size":"128"
                    }
                  ]
                }
              }
            }
          }
        },
        {
          "name":"PartitionedCall/transpose_162/perm",
          "op":"Const",
          "attr":{
            "value":{
              "tensor":{
                "dtype":"DT_INT32",
                "tensorShape":{
                  "dim":[
                    {
                      "size":"4"
                    }
                  ]
                }
              }
            },
            "dtype":{
              "type":"DT_INT32"
            }
          }
        },
        {
          "name":"PartitionedCall/Const_18",
          "op":"Const",
          "attr":{
            "value":{
              "tensor":{
                "dtype":"DT_INT32",
                "tensorShape":{
                  "dim":[
                    {
                      "size":"4"
                    },
                    {
                      "size":"2"
                    }
                  ]
                }
              }
            },
            "dtype":{
              "type":"DT_INT32"
            }
          }
        },
        {
          "name":"PartitionedCall/transpose_149/perm",
          "op":"Const",
          "attr":{
            "dtype":{
              "type":"DT_INT32"
            },
            "value":{
              "tensor":{
                "dtype":"DT_INT32",
                "tensorShape":{
                  "dim":[
                    {
                      "size":"4"
                    }
                  ]
                }
              }
            }
          }
        },
        {
          "name":"PartitionedCall/split_44",
          "op":"Const",
          "attr":{
            "value":{
              "tensor":{
                "dtype":"DT_FLOAT",
                "tensorShape":{
                  "dim":[
                    {
                      "size":"3"
                    },
                    {
                      "size":"3"
                    },
                    {
                      "size":"64"
                    },
                    {
                      "size":"64"
                    }
                  ]
                }
              }
            },
            "dtype":{
              "type":"DT_FLOAT"
            }
          }
        },
        {
          "name":"unknown_88",
          "op":"Const",
          "attr":{
            "dtype":{
              "type":"DT_FLOAT"
            },
            "value":{
              "tensor":{
                "dtype":"DT_FLOAT",
                "tensorShape":{
                  "dim":[
                    {
                      "size":"64"
                    }
                  ]
                }
              }
            }
          }
        },
        {
          "name":"PartitionedCall/transpose_150/perm",
          "op":"Const",
          "attr":{
            "dtype":{
              "type":"DT_INT32"
            },
            "value":{
              "tensor":{
                "dtype":"DT_INT32",
                "tensorShape":{
                  "dim":[
                    {
                      "size":"4"
                    }
                  ]
                }
              }
            }
          }
        },
        {
          "name":"PartitionedCall/Const_17",
          "op":"Const",
          "attr":{
            "value":{
              "tensor":{
                "dtype":"DT_INT32",
                "tensorShape":{
                  "dim":[
                    {
                      "size":"4"
                    },
                    {
                      "size":"2"
                    }
                  ]
                }
              }
            },
            "dtype":{
              "type":"DT_INT32"
            }
          }
        },
        {
          "name":"PartitionedCall/transpose_146/perm",
          "op":"Const",
          "attr":{
            "value":{
              "tensor":{
                "dtype":"DT_INT32",
                "tensorShape":{
                  "dim":[
                    {
                      "size":"4"
                    }
                  ]
                }
              }
            },
            "dtype":{
              "type":"DT_INT32"
            }
          }
        },
        {
          "name":"PartitionedCall/split_43",
          "op":"Const",
          "attr":{
            "value":{
              "tensor":{
                "dtype":"DT_FLOAT",
                "tensorShape":{
                  "dim":[
                    {
                      "size":"3"
                    },
                    {
                      "size":"3"
                    },
                    {
                      "size":"64"
                    },
                    {
                      "size":"64"
                    }
                  ]
                }
              }
            },
            "dtype":{
              "type":"DT_FLOAT"
            }
          }
        },
        {
          "name":"unknown_86",
          "op":"Const",
          "attr":{
            "dtype":{
              "type":"DT_FLOAT"
            },
            "value":{
              "tensor":{
                "dtype":"DT_FLOAT",
                "tensorShape":{
                  "dim":[
                    {
                      "size":"64"
                    }
                  ]
                }
              }
            }
          }
        },
        {
          "name":"PartitionedCall/transpose_147/perm",
          "op":"Const",
          "attr":{
            "value":{
              "tensor":{
                "dtype":"DT_INT32",
                "tensorShape":{
                  "dim":[
                    {
                      "size":"4"
                    }
                  ]
                }
              }
            },
            "dtype":{
              "type":"DT_INT32"
            }
          }
        },
        {
          "name":"PartitionedCall/transpose_143/perm",
          "op":"Const",
          "attr":{
            "value":{
              "tensor":{
                "dtype":"DT_INT32",
                "tensorShape":{
                  "dim":[
                    {
                      "size":"4"
                    }
                  ]
                }
              }
            },
            "dtype":{
              "type":"DT_INT32"
            }
          }
        },
        {
          "name":"PartitionedCall/split_42",
          "op":"Const",
          "attr":{
            "dtype":{
              "type":"DT_FLOAT"
            },
            "value":{
              "tensor":{
                "dtype":"DT_FLOAT",
                "tensorShape":{
                  "dim":[
                    {
                      "size":"1"
                    },
                    {
                      "size":"1"
                    },
                    {
                      "size":"256"
                    },
                    {
                      "size":"64"
                    }
                  ]
                }
              }
            }
          }
        },
        {
          "name":"unknown_84",
          "op":"Const",
          "attr":{
            "dtype":{
              "type":"DT_FLOAT"
            },
            "value":{
              "tensor":{
                "dtype":"DT_FLOAT",
                "tensorShape":{
                  "dim":[
                    {
                      "size":"64"
                    }
                  ]
                }
              }
            }
          }
        },
        {
          "name":"PartitionedCall/transpose_144/perm",
          "op":"Const",
          "attr":{
            "dtype":{
              "type":"DT_INT32"
            },
            "value":{
              "tensor":{
                "dtype":"DT_INT32",
                "tensorShape":{
                  "dim":[
                    {
                      "size":"4"
                    }
                  ]
                }
              }
            }
          }
        },
        {
          "name":"PartitionedCall/Const_15",
          "op":"Const",
          "attr":{
            "value":{
              "tensor":{
                "dtype":"DT_INT32",
                "tensorShape":{
                  "dim":[
                    {
                      "size":"4"
                    },
                    {
                      "size":"2"
                    }
                  ]
                }
              }
            },
            "dtype":{
              "type":"DT_INT32"
            }
          }
        },
        {
          "name":"PartitionedCall/transpose_131/perm",
          "op":"Const",
          "attr":{
            "dtype":{
              "type":"DT_INT32"
            },
            "value":{
              "tensor":{
                "dtype":"DT_INT32",
                "tensorShape":{
                  "dim":[
                    {
                      "size":"4"
                    }
                  ]
                }
              }
            }
          }
        },
        {
          "name":"PartitionedCall/split_38",
          "op":"Const",
          "attr":{
            "value":{
              "tensor":{
                "dtype":"DT_FLOAT",
                "tensorShape":{
                  "dim":[
                    {
                      "size":"3"
                    },
                    {
                      "size":"3"
                    },
                    {
                      "size":"32"
                    },
                    {
                      "size":"32"
                    }
                  ]
                }
              }
            },
            "dtype":{
              "type":"DT_FLOAT"
            }
          }
        },
        {
          "name":"unknown_76",
          "op":"Const",
          "attr":{
            "dtype":{
              "type":"DT_FLOAT"
            },
            "value":{
              "tensor":{
                "dtype":"DT_FLOAT",
                "tensorShape":{
                  "dim":[
                    {
                      "size":"32"
                    }
                  ]
                }
              }
            }
          }
        },
        {
          "name":"PartitionedCall/transpose_132/perm",
          "op":"Const",
          "attr":{
            "value":{
              "tensor":{
                "dtype":"DT_INT32",
                "tensorShape":{
                  "dim":[
                    {
                      "size":"4"
                    }
                  ]
                }
              }
            },
            "dtype":{
              "type":"DT_INT32"
            }
          }
        },
        {
          "name":"PartitionedCall/Const_14",
          "op":"Const",
          "attr":{
            "dtype":{
              "type":"DT_INT32"
            },
            "value":{
              "tensor":{
                "dtype":"DT_INT32",
                "tensorShape":{
                  "dim":[
                    {
                      "size":"4"
                    },
                    {
                      "size":"2"
                    }
                  ]
                }
              }
            }
          }
        },
        {
          "name":"PartitionedCall/transpose_128/perm",
          "op":"Const",
          "attr":{
            "dtype":{
              "type":"DT_INT32"
            },
            "value":{
              "tensor":{
                "dtype":"DT_INT32",
                "tensorShape":{
                  "dim":[
                    {
                      "size":"4"
                    }
                  ]
                }
              }
            }
          }
        },
        {
          "name":"PartitionedCall/split_37",
          "op":"Const",
          "attr":{
            "dtype":{
              "type":"DT_FLOAT"
            },
            "value":{
              "tensor":{
                "dtype":"DT_FLOAT",
                "tensorShape":{
                  "dim":[
                    {
                      "size":"3"
                    },
                    {
                      "size":"3"
                    },
                    {
                      "size":"32"
                    },
                    {
                      "size":"32"
                    }
                  ]
                }
              }
            }
          }
        },
        {
          "name":"unknown_74",
          "op":"Const",
          "attr":{
            "value":{
              "tensor":{
                "dtype":"DT_FLOAT",
                "tensorShape":{
                  "dim":[
                    {
                      "size":"32"
                    }
                  ]
                }
              }
            },
            "dtype":{
              "type":"DT_FLOAT"
            }
          }
        },
        {
          "name":"PartitionedCall/transpose_129/perm",
          "op":"Const",
          "attr":{
            "dtype":{
              "type":"DT_INT32"
            },
            "value":{
              "tensor":{
                "dtype":"DT_INT32",
                "tensorShape":{
                  "dim":[
                    {
                      "size":"4"
                    }
                  ]
                }
              }
            }
          }
        },
        {
          "name":"PartitionedCall/transpose_125/perm",
          "op":"Const",
          "attr":{
            "dtype":{
              "type":"DT_INT32"
            },
            "value":{
              "tensor":{
                "dtype":"DT_INT32",
                "tensorShape":{
                  "dim":[
                    {
                      "size":"4"
                    }
                  ]
                }
              }
            }
          }
        },
        {
          "name":"PartitionedCall/split_36",
          "op":"Const",
          "attr":{
            "dtype":{
              "type":"DT_FLOAT"
            },
            "value":{
              "tensor":{
                "dtype":"DT_FLOAT",
                "tensorShape":{
                  "dim":[
                    {
                      "size":"1"
                    },
                    {
                      "size":"1"
                    },
                    {
                      "size":"128"
                    },
                    {
                      "size":"32"
                    }
                  ]
                }
              }
            }
          }
        },
        {
          "name":"unknown_72",
          "op":"Const",
          "attr":{
            "dtype":{
              "type":"DT_FLOAT"
            },
            "value":{
              "tensor":{
                "dtype":"DT_FLOAT",
                "tensorShape":{
                  "dim":[
                    {
                      "size":"32"
                    }
                  ]
                }
              }
            }
          }
        },
        {
          "name":"PartitionedCall/transpose_126/perm",
          "op":"Const",
          "attr":{
            "dtype":{
              "type":"DT_INT32"
            },
            "value":{
              "tensor":{
                "dtype":"DT_INT32",
                "tensorShape":{
                  "dim":[
                    {
                      "size":"4"
                    }
                  ]
                }
              }
            }
          }
        },
        {
          "name":"PartitionedCall/transpose_119/perm",
          "op":"Const",
          "attr":{
            "dtype":{
              "type":"DT_INT32"
            },
            "value":{
              "tensor":{
                "dtype":"DT_INT32",
                "tensorShape":{
                  "dim":[
                    {
                      "size":"4"
                    }
                  ]
                }
              }
            }
          }
        },
        {
          "name":"PartitionedCall/split_34",
          "op":"Const",
          "attr":{
            "dtype":{
              "type":"DT_FLOAT"
            },
            "value":{
              "tensor":{
                "dtype":"DT_FLOAT",
                "tensorShape":{
                  "dim":[
                    {
                      "size":"1"
                    },
                    {
                      "size":"1"
                    },
                    {
                      "size":"128"
                    },
                    {
                      "size":"64"
                    }
                  ]
                }
              }
            }
          }
        },
        {
          "name":"unknown_68",
          "op":"Const",
          "attr":{
            "value":{
              "tensor":{
                "dtype":"DT_FLOAT",
                "tensorShape":{
                  "dim":[
                    {
                      "size":"64"
                    }
                  ]
                }
              }
            },
            "dtype":{
              "type":"DT_FLOAT"
            }
          }
        },
        {
          "name":"PartitionedCall/transpose_120/perm",
          "op":"Const",
          "attr":{
            "value":{
              "tensor":{
                "dtype":"DT_INT32",
                "tensorShape":{
                  "dim":[
                    {
                      "size":"4"
                    }
                  ]
                }
              }
            },
            "dtype":{
              "type":"DT_INT32"
            }
          }
        },
        {
          "name":"PartitionedCall/transpose_114/perm",
          "op":"Const",
          "attr":{
            "value":{
              "tensor":{
                "dtype":"DT_INT32",
                "tensorShape":{
                  "dim":[
                    {
                      "size":"4"
                    }
                  ]
                }
              }
            },
            "dtype":{
              "type":"DT_INT32"
            }
          }
        },
        {
          "name":"PartitionedCall/split_33",
          "op":"Const",
          "attr":{
            "dtype":{
              "type":"DT_FLOAT"
            },
            "value":{
              "tensor":{
                "dtype":"DT_FLOAT",
                "tensorShape":{
                  "dim":[
                    {
                      "size":"1"
                    },
                    {
                      "size":"1"
                    },
                    {
                      "size":"128"
                    },
                    {
                      "size":"64"
                    }
                  ]
                }
              }
            }
          }
        },
        {
          "name":"unknown_66",
          "op":"Const",
          "attr":{
            "value":{
              "tensor":{
                "dtype":"DT_FLOAT",
                "tensorShape":{
                  "dim":[
                    {
                      "size":"64"
                    }
                  ]
                }
              }
            },
            "dtype":{
              "type":"DT_FLOAT"
            }
          }
        },
        {
          "name":"PartitionedCall/transpose_115/perm",
          "op":"Const",
          "attr":{
            "dtype":{
              "type":"DT_INT32"
            },
            "value":{
              "tensor":{
                "dtype":"DT_INT32",
                "tensorShape":{
                  "dim":[
                    {
                      "size":"4"
                    }
                  ]
                }
              }
            }
          }
        },
        {
          "name":"PartitionedCall/transpose_116/perm",
          "op":"Const",
          "attr":{
            "value":{
              "tensor":{
                "dtype":"DT_INT32",
                "tensorShape":{
                  "dim":[
                    {
                      "size":"4"
                    }
                  ]
                }
              }
            },
            "dtype":{
              "type":"DT_INT32"
            }
          }
        },
        {
          "name":"PartitionedCall/Cast_3",
          "op":"Const",
          "attr":{
            "value":{
              "tensor":{
                "dtype":"DT_INT32",
                "tensorShape":{
                  "dim":[
                    {
                      "size":"2"
                    }
                  ]
                }
              }
            },
            "dtype":{
              "type":"DT_INT32"
            }
          }
        },
        {
          "name":"PartitionedCall/transpose_117/perm",
          "op":"Const",
          "attr":{
            "value":{
              "tensor":{
                "dtype":"DT_INT32",
                "tensorShape":{
                  "dim":[
                    {
                      "size":"4"
                    }
                  ]
                }
              }
            },
            "dtype":{
              "type":"DT_INT32"
            }
          }
        },
        {
          "name":"PartitionedCall/onnx_tf_prefix_/model.51/Concat/axis",
          "op":"Const",
          "attr":{
            "dtype":{
              "type":"DT_INT32"
            },
            "value":{
              "tensor":{
                "dtype":"DT_INT32",
                "tensorShape":{
                  
                }
              }
            }
          }
        },
        {
          "name":"PartitionedCall/transpose_122/perm",
          "op":"Const",
          "attr":{
            "dtype":{
              "type":"DT_INT32"
            },
            "value":{
              "tensor":{
                "dtype":"DT_INT32",
                "tensorShape":{
                  "dim":[
                    {
                      "size":"4"
                    }
                  ]
                }
              }
            }
          }
        },
        {
          "name":"PartitionedCall/split_35",
          "op":"Const",
          "attr":{
            "dtype":{
              "type":"DT_FLOAT"
            },
            "value":{
              "tensor":{
                "dtype":"DT_FLOAT",
                "tensorShape":{
                  "dim":[
                    {
                      "size":"1"
                    },
                    {
                      "size":"1"
                    },
                    {
                      "size":"128"
                    },
                    {
                      "size":"32"
                    }
                  ]
                }
              }
            }
          }
        },
        {
          "name":"unknown_70",
          "op":"Const",
          "attr":{
            "value":{
              "tensor":{
                "dtype":"DT_FLOAT",
                "tensorShape":{
                  "dim":[
                    {
                      "size":"32"
                    }
                  ]
                }
              }
            },
            "dtype":{
              "type":"DT_FLOAT"
            }
          }
        },
        {
          "name":"PartitionedCall/transpose_123/perm",
          "op":"Const",
          "attr":{
            "dtype":{
              "type":"DT_INT32"
            },
            "value":{
              "tensor":{
                "dtype":"DT_INT32",
                "tensorShape":{
                  "dim":[
                    {
                      "size":"4"
                    }
                  ]
                }
              }
            }
          }
        },
        {
          "name":"PartitionedCall/onnx_tf_prefix_/model.56/Concat/axis",
          "op":"Const",
          "attr":{
            "value":{
              "tensor":{
                "dtype":"DT_INT32",
                "tensorShape":{
                  
                }
              }
            },
            "dtype":{
              "type":"DT_INT32"
            }
          }
        },
        {
          "name":"PartitionedCall/transpose_134/perm",
          "op":"Const",
          "attr":{
            "value":{
              "tensor":{
                "dtype":"DT_INT32",
                "tensorShape":{
                  "dim":[
                    {
                      "size":"4"
                    }
                  ]
                }
              }
            },
            "dtype":{
              "type":"DT_INT32"
            }
          }
        },
        {
          "name":"PartitionedCall/split_39",
          "op":"Const",
          "attr":{
            "dtype":{
              "type":"DT_FLOAT"
            },
            "value":{
              "tensor":{
                "dtype":"DT_FLOAT",
                "tensorShape":{
                  "dim":[
                    {
                      "size":"1"
                    },
                    {
                      "size":"1"
                    },
                    {
                      "size":"128"
                    },
                    {
                      "size":"64"
                    }
                  ]
                }
              }
            }
          }
        },
        {
          "name":"unknown_78",
          "op":"Const",
          "attr":{
            "value":{
              "tensor":{
                "dtype":"DT_FLOAT",
                "tensorShape":{
                  "dim":[
                    {
                      "size":"64"
                    }
                  ]
                }
              }
            },
            "dtype":{
              "type":"DT_FLOAT"
            }
          }
        },
        {
          "name":"PartitionedCall/transpose_135/perm",
          "op":"Const",
          "attr":{
            "value":{
              "tensor":{
                "dtype":"DT_INT32",
                "tensorShape":{
                  "dim":[
                    {
                      "size":"4"
                    }
                  ]
                }
              }
            },
            "dtype":{
              "type":"DT_INT32"
            }
          }
        },
        {
          "name":"PartitionedCall/Const_16",
          "op":"Const",
          "attr":{
            "dtype":{
              "type":"DT_INT32"
            },
            "value":{
              "tensor":{
                "dtype":"DT_INT32",
                "tensorShape":{
                  "dim":[
                    {
                      "size":"4"
                    },
                    {
                      "size":"2"
                    }
                  ]
                }
              }
            }
          }
        },
        {
          "name":"PartitionedCall/transpose_137/perm",
          "op":"Const",
          "attr":{
            "value":{
              "tensor":{
                "dtype":"DT_INT32",
                "tensorShape":{
                  "dim":[
                    {
                      "size":"4"
                    }
                  ]
                }
              }
            },
            "dtype":{
              "type":"DT_INT32"
            }
          }
        },
        {
          "name":"PartitionedCall/split_40",
          "op":"Const",
          "attr":{
            "dtype":{
              "type":"DT_FLOAT"
            },
            "value":{
              "tensor":{
                "dtype":"DT_FLOAT",
                "tensorShape":{
                  "dim":[
                    {
                      "size":"3"
                    },
                    {
                      "size":"3"
                    },
                    {
                      "size":"64"
                    },
                    {
                      "size":"128"
                    }
                  ]
                }
              }
            }
          }
        },
        {
          "name":"unknown_80",
          "op":"Const",
          "attr":{
            "dtype":{
              "type":"DT_FLOAT"
            },
            "value":{
              "tensor":{
                "dtype":"DT_FLOAT",
                "tensorShape":{
                  "dim":[
                    {
                      "size":"128"
                    }
                  ]
                }
              }
            }
          }
        },
        {
          "name":"PartitionedCall/transpose_138/perm",
          "op":"Const",
          "attr":{
            "value":{
              "tensor":{
                "dtype":"DT_INT32",
                "tensorShape":{
                  "dim":[
                    {
                      "size":"4"
                    }
                  ]
                }
              }
            },
            "dtype":{
              "type":"DT_INT32"
            }
          }
        },
        {
          "name":"PartitionedCall/Const_12",
          "op":"Const",
          "attr":{
            "value":{
              "tensor":{
                "dtype":"DT_INT32",
                "tensorShape":{
                  "dim":[
                    {
                      "size":"4"
                    },
                    {
                      "size":"2"
                    }
                  ]
                }
              }
            },
            "dtype":{
              "type":"DT_INT32"
            }
          }
        },
        {
          "name":"PartitionedCall/transpose_108/perm",
          "op":"Const",
          "attr":{
            "dtype":{
              "type":"DT_INT32"
            },
            "value":{
              "tensor":{
                "dtype":"DT_INT32",
                "tensorShape":{
                  "dim":[
                    {
                      "size":"4"
                    }
                  ]
                }
              }
            }
          }
        },
        {
          "name":"PartitionedCall/split_31",
          "op":"Const",
          "attr":{
            "dtype":{
              "type":"DT_FLOAT"
            },
            "value":{
              "tensor":{
                "dtype":"DT_FLOAT",
                "tensorShape":{
                  "dim":[
                    {
                      "size":"3"
                    },
                    {
                      "size":"3"
                    },
                    {
                      "size":"64"
                    },
                    {
                      "size":"64"
                    }
                  ]
                }
              }
            }
          }
        },
        {
          "name":"unknown_62",
          "op":"Const",
          "attr":{
            "dtype":{
              "type":"DT_FLOAT"
            },
            "value":{
              "tensor":{
                "dtype":"DT_FLOAT",
                "tensorShape":{
                  "dim":[
                    {
                      "size":"64"
                    }
                  ]
                }
              }
            }
          }
        },
        {
          "name":"PartitionedCall/transpose_109/perm",
          "op":"Const",
          "attr":{
            "value":{
              "tensor":{
                "dtype":"DT_INT32",
                "tensorShape":{
                  "dim":[
                    {
                      "size":"4"
                    }
                  ]
                }
              }
            },
            "dtype":{
              "type":"DT_INT32"
            }
          }
        },
        {
          "name":"PartitionedCall/Const_11",
          "op":"Const",
          "attr":{
            "value":{
              "tensor":{
                "dtype":"DT_INT32",
                "tensorShape":{
                  "dim":[
                    {
                      "size":"4"
                    },
                    {
                      "size":"2"
                    }
                  ]
                }
              }
            },
            "dtype":{
              "type":"DT_INT32"
            }
          }
        },
        {
          "name":"PartitionedCall/transpose_105/perm",
          "op":"Const",
          "attr":{
            "dtype":{
              "type":"DT_INT32"
            },
            "value":{
              "tensor":{
                "dtype":"DT_INT32",
                "tensorShape":{
                  "dim":[
                    {
                      "size":"4"
                    }
                  ]
                }
              }
            }
          }
        },
        {
          "name":"PartitionedCall/split_30",
          "op":"Const",
          "attr":{
            "value":{
              "tensor":{
                "dtype":"DT_FLOAT",
                "tensorShape":{
                  "dim":[
                    {
                      "size":"3"
                    },
                    {
                      "size":"3"
                    },
                    {
                      "size":"64"
                    },
                    {
                      "size":"64"
                    }
                  ]
                }
              }
            },
            "dtype":{
              "type":"DT_FLOAT"
            }
          }
        },
        {
          "name":"unknown_60",
          "op":"Const",
          "attr":{
            "value":{
              "tensor":{
                "dtype":"DT_FLOAT",
                "tensorShape":{
                  "dim":[
                    {
                      "size":"64"
                    }
                  ]
                }
              }
            },
            "dtype":{
              "type":"DT_FLOAT"
            }
          }
        },
        {
          "name":"PartitionedCall/transpose_106/perm",
          "op":"Const",
          "attr":{
            "value":{
              "tensor":{
                "dtype":"DT_INT32",
                "tensorShape":{
                  "dim":[
                    {
                      "size":"4"
                    }
                  ]
                }
              }
            },
            "dtype":{
              "type":"DT_INT32"
            }
          }
        },
        {
          "name":"PartitionedCall/transpose_102/perm",
          "op":"Const",
          "attr":{
            "dtype":{
              "type":"DT_INT32"
            },
            "value":{
              "tensor":{
                "dtype":"DT_INT32",
                "tensorShape":{
                  "dim":[
                    {
                      "size":"4"
                    }
                  ]
                }
              }
            }
          }
        },
        {
          "name":"PartitionedCall/split_29",
          "op":"Const",
          "attr":{
            "value":{
              "tensor":{
                "dtype":"DT_FLOAT",
                "tensorShape":{
                  "dim":[
                    {
                      "size":"1"
                    },
                    {
                      "size":"1"
                    },
                    {
                      "size":"256"
                    },
                    {
                      "size":"64"
                    }
                  ]
                }
              }
            },
            "dtype":{
              "type":"DT_FLOAT"
            }
          }
        },
        {
          "name":"unknown_58",
          "op":"Const",
          "attr":{
            "dtype":{
              "type":"DT_FLOAT"
            },
            "value":{
              "tensor":{
                "dtype":"DT_FLOAT",
                "tensorShape":{
                  "dim":[
                    {
                      "size":"64"
                    }
                  ]
                }
              }
            }
          }
        },
        {
          "name":"PartitionedCall/transpose_103/perm",
          "op":"Const",
          "attr":{
            "value":{
              "tensor":{
                "dtype":"DT_INT32",
                "tensorShape":{
                  "dim":[
                    {
                      "size":"4"
                    }
                  ]
                }
              }
            },
            "dtype":{
              "type":"DT_INT32"
            }
          }
        },
        {
          "name":"PartitionedCall/transpose_96/perm",
          "op":"Const",
          "attr":{
            "dtype":{
              "type":"DT_INT32"
            },
            "value":{
              "tensor":{
                "dtype":"DT_INT32",
                "tensorShape":{
                  "dim":[
                    {
                      "size":"4"
                    }
                  ]
                }
              }
            }
          }
        },
        {
          "name":"PartitionedCall/split_27",
          "op":"Const",
          "attr":{
            "dtype":{
              "type":"DT_FLOAT"
            },
            "value":{
              "tensor":{
                "dtype":"DT_FLOAT",
                "tensorShape":{
                  "dim":[
                    {
                      "size":"1"
                    },
                    {
                      "size":"1"
                    },
                    {
                      "size":"256"
                    },
                    {
                      "size":"128"
                    }
                  ]
                }
              }
            }
          }
        },
        {
          "name":"unknown_54",
          "op":"Const",
          "attr":{
            "dtype":{
              "type":"DT_FLOAT"
            },
            "value":{
              "tensor":{
                "dtype":"DT_FLOAT",
                "tensorShape":{
                  "dim":[
                    {
                      "size":"128"
                    }
                  ]
                }
              }
            }
          }
        },
        {
          "name":"PartitionedCall/transpose_97/perm",
          "op":"Const",
          "attr":{
            "value":{
              "tensor":{
                "dtype":"DT_INT32",
                "tensorShape":{
                  "dim":[
                    {
                      "size":"4"
                    }
                  ]
                }
              }
            },
            "dtype":{
              "type":"DT_INT32"
            }
          }
        },
        {
          "name":"PartitionedCall/transpose_91/perm",
          "op":"Const",
          "attr":{
            "dtype":{
              "type":"DT_INT32"
            },
            "value":{
              "tensor":{
                "dtype":"DT_INT32",
                "tensorShape":{
                  "dim":[
                    {
                      "size":"4"
                    }
                  ]
                }
              }
            }
          }
        },
        {
          "name":"PartitionedCall/split_26",
          "op":"Const",
          "attr":{
            "value":{
              "tensor":{
                "dtype":"DT_FLOAT",
                "tensorShape":{
                  "dim":[
                    {
                      "size":"1"
                    },
                    {
                      "size":"1"
                    },
                    {
                      "size":"256"
                    },
                    {
                      "size":"128"
                    }
                  ]
                }
              }
            },
            "dtype":{
              "type":"DT_FLOAT"
            }
          }
        },
        {
          "name":"unknown_52",
          "op":"Const",
          "attr":{
            "dtype":{
              "type":"DT_FLOAT"
            },
            "value":{
              "tensor":{
                "dtype":"DT_FLOAT",
                "tensorShape":{
                  "dim":[
                    {
                      "size":"128"
                    }
                  ]
                }
              }
            }
          }
        },
        {
          "name":"PartitionedCall/transpose_92/perm",
          "op":"Const",
          "attr":{
            "dtype":{
              "type":"DT_INT32"
            },
            "value":{
              "tensor":{
                "dtype":"DT_INT32",
                "tensorShape":{
                  "dim":[
                    {
                      "size":"4"
                    }
                  ]
                }
              }
            }
          }
        },
        {
          "name":"PartitionedCall/transpose_93/perm",
          "op":"Const",
          "attr":{
            "dtype":{
              "type":"DT_INT32"
            },
            "value":{
              "tensor":{
                "dtype":"DT_INT32",
                "tensorShape":{
                  "dim":[
                    {
                      "size":"4"
                    }
                  ]
                }
              }
            }
          }
        },
        {
          "name":"PartitionedCall/Cast_1",
          "op":"Const",
          "attr":{
            "value":{
              "tensor":{
                "dtype":"DT_INT32",
                "tensorShape":{
                  "dim":[
                    {
                      "size":"2"
                    }
                  ]
                }
              }
            },
            "dtype":{
              "type":"DT_INT32"
            }
          }
        },
        {
          "name":"PartitionedCall/transpose_94/perm",
          "op":"Const",
          "attr":{
            "value":{
              "tensor":{
                "dtype":"DT_INT32",
                "tensorShape":{
                  "dim":[
                    {
                      "size":"4"
                    }
                  ]
                }
              }
            },
            "dtype":{
              "type":"DT_INT32"
            }
          }
        },
        {
          "name":"PartitionedCall/onnx_tf_prefix_/model.41/Concat/axis",
          "op":"Const",
          "attr":{
            "dtype":{
              "type":"DT_INT32"
            },
            "value":{
              "tensor":{
                "dtype":"DT_INT32",
                "tensorShape":{
                  
                }
              }
            }
          }
        },
        {
          "name":"PartitionedCall/transpose_99/perm",
          "op":"Const",
          "attr":{
            "dtype":{
              "type":"DT_INT32"
            },
            "value":{
              "tensor":{
                "dtype":"DT_INT32",
                "tensorShape":{
                  "dim":[
                    {
                      "size":"4"
                    }
                  ]
                }
              }
            }
          }
        },
        {
          "name":"PartitionedCall/split_28",
          "op":"Const",
          "attr":{
            "dtype":{
              "type":"DT_FLOAT"
            },
            "value":{
              "tensor":{
                "dtype":"DT_FLOAT",
                "tensorShape":{
                  "dim":[
                    {
                      "size":"1"
                    },
                    {
                      "size":"1"
                    },
                    {
                      "size":"256"
                    },
                    {
                      "size":"64"
                    }
                  ]
                }
              }
            }
          }
        },
        {
          "name":"unknown_56",
          "op":"Const",
          "attr":{
            "dtype":{
              "type":"DT_FLOAT"
            },
            "value":{
              "tensor":{
                "dtype":"DT_FLOAT",
                "tensorShape":{
                  "dim":[
                    {
                      "size":"64"
                    }
                  ]
                }
              }
            }
          }
        },
        {
          "name":"PartitionedCall/transpose_100/perm",
          "op":"Const",
          "attr":{
            "value":{
              "tensor":{
                "dtype":"DT_INT32",
                "tensorShape":{
                  "dim":[
                    {
                      "size":"4"
                    }
                  ]
                }
              }
            },
            "dtype":{
              "type":"DT_INT32"
            }
          }
        },
        {
          "name":"PartitionedCall/onnx_tf_prefix_/model.46/Concat/axis",
          "op":"Const",
          "attr":{
            "dtype":{
              "type":"DT_INT32"
            },
            "value":{
              "tensor":{
                "dtype":"DT_INT32",
                "tensorShape":{
                  
                }
              }
            }
          }
        },
        {
          "name":"PartitionedCall/transpose_111/perm",
          "op":"Const",
          "attr":{
            "value":{
              "tensor":{
                "dtype":"DT_INT32",
                "tensorShape":{
                  "dim":[
                    {
                      "size":"4"
                    }
                  ]
                }
              }
            },
            "dtype":{
              "type":"DT_INT32"
            }
          }
        },
        {
          "name":"PartitionedCall/split_32",
          "op":"Const",
          "attr":{
            "dtype":{
              "type":"DT_FLOAT"
            },
            "value":{
              "tensor":{
                "dtype":"DT_FLOAT",
                "tensorShape":{
                  "dim":[
                    {
                      "size":"1"
                    },
                    {
                      "size":"1"
                    },
                    {
                      "size":"256"
                    },
                    {
                      "size":"128"
                    }
                  ]
                }
              }
            }
          }
        },
        {
          "name":"unknown_64",
          "op":"Const",
          "attr":{
            "value":{
              "tensor":{
                "dtype":"DT_FLOAT",
                "tensorShape":{
                  "dim":[
                    {
                      "size":"128"
                    }
                  ]
                }
              }
            },
            "dtype":{
              "type":"DT_FLOAT"
            }
          }
        },
        {
          "name":"PartitionedCall/transpose_112/perm",
          "op":"Const",
          "attr":{
            "value":{
              "tensor":{
                "dtype":"DT_INT32",
                "tensorShape":{
                  "dim":[
                    {
                      "size":"4"
                    }
                  ]
                }
              }
            },
            "dtype":{
              "type":"DT_INT32"
            }
          }
        },
        {
          "name":"PartitionedCall/onnx_tf_prefix_/model.59/Concat/axis",
          "op":"Const",
          "attr":{
            "dtype":{
              "type":"DT_INT32"
            },
            "value":{
              "tensor":{
                "dtype":"DT_INT32",
                "tensorShape":{
                  
                }
              }
            }
          }
        },
        {
          "name":"PartitionedCall/transpose_140/perm",
          "op":"Const",
          "attr":{
            "value":{
              "tensor":{
                "dtype":"DT_INT32",
                "tensorShape":{
                  "dim":[
                    {
                      "size":"4"
                    }
                  ]
                }
              }
            },
            "dtype":{
              "type":"DT_INT32"
            }
          }
        },
        {
          "name":"PartitionedCall/split_41",
          "op":"Const",
          "attr":{
            "dtype":{
              "type":"DT_FLOAT"
            },
            "value":{
              "tensor":{
                "dtype":"DT_FLOAT",
                "tensorShape":{
                  "dim":[
                    {
                      "size":"1"
                    },
                    {
                      "size":"1"
                    },
                    {
                      "size":"256"
                    },
                    {
                      "size":"64"
                    }
                  ]
                }
              }
            }
          }
        },
        {
          "name":"unknown_82",
          "op":"Const",
          "attr":{
            "value":{
              "tensor":{
                "dtype":"DT_FLOAT",
                "tensorShape":{
                  "dim":[
                    {
                      "size":"64"
                    }
                  ]
                }
              }
            },
            "dtype":{
              "type":"DT_FLOAT"
            }
          }
        },
        {
          "name":"PartitionedCall/transpose_141/perm",
          "op":"Const",
          "attr":{
            "dtype":{
              "type":"DT_INT32"
            },
            "value":{
              "tensor":{
                "dtype":"DT_INT32",
                "tensorShape":{
                  "dim":[
                    {
                      "size":"4"
                    }
                  ]
                }
              }
            }
          }
        },
        {
          "name":"PartitionedCall/onnx_tf_prefix_/model.64/Concat/axis",
          "op":"Const",
          "attr":{
            "dtype":{
              "type":"DT_INT32"
            },
            "value":{
              "tensor":{
                "dtype":"DT_INT32",
                "tensorShape":{
                  
                }
              }
            }
          }
        },
        {
          "name":"PartitionedCall/transpose_152/perm",
          "op":"Const",
          "attr":{
            "dtype":{
              "type":"DT_INT32"
            },
            "value":{
              "tensor":{
                "dtype":"DT_INT32",
                "tensorShape":{
                  "dim":[
                    {
                      "size":"4"
                    }
                  ]
                }
              }
            }
          }
        },
        {
          "name":"PartitionedCall/split_45",
          "op":"Const",
          "attr":{
            "dtype":{
              "type":"DT_FLOAT"
            },
            "value":{
              "tensor":{
                "dtype":"DT_FLOAT",
                "tensorShape":{
                  "dim":[
                    {
                      "size":"1"
                    },
                    {
                      "size":"1"
                    },
                    {
                      "size":"256"
                    },
                    {
                      "size":"128"
                    }
                  ]
                }
              }
            }
          }
        },
        {
          "name":"unknown_90",
          "op":"Const",
          "attr":{
            "dtype":{
              "type":"DT_FLOAT"
            },
            "value":{
              "tensor":{
                "dtype":"DT_FLOAT",
                "tensorShape":{
                  "dim":[
                    {
                      "size":"128"
                    }
                  ]
                }
              }
            }
          }
        },
        {
          "name":"PartitionedCall/transpose_153/perm",
          "op":"Const",
          "attr":{
            "value":{
              "tensor":{
                "dtype":"DT_INT32",
                "tensorShape":{
                  "dim":[
                    {
                      "size":"4"
                    }
                  ]
                }
              }
            },
            "dtype":{
              "type":"DT_INT32"
            }
          }
        },
        {
          "name":"PartitionedCall/Const_19",
          "op":"Const",
          "attr":{
            "value":{
              "tensor":{
                "dtype":"DT_INT32",
                "tensorShape":{
                  "dim":[
                    {
                      "size":"4"
                    },
                    {
                      "size":"2"
                    }
                  ]
                }
              }
            },
            "dtype":{
              "type":"DT_INT32"
            }
          }
        },
        {
          "name":"PartitionedCall/transpose_155/perm",
          "op":"Const",
          "attr":{
            "value":{
              "tensor":{
                "dtype":"DT_INT32",
                "tensorShape":{
                  "dim":[
                    {
                      "size":"4"
                    }
                  ]
                }
              }
            },
            "dtype":{
              "type":"DT_INT32"
            }
          }
        },
        {
          "name":"PartitionedCall/split_46",
          "op":"Const",
          "attr":{
            "value":{
              "tensor":{
                "dtype":"DT_FLOAT",
                "tensorShape":{
                  "dim":[
                    {
                      "size":"3"
                    },
                    {
                      "size":"3"
                    },
                    {
                      "size":"128"
                    },
                    {
                      "size":"256"
                    }
                  ]
                }
              }
            },
            "dtype":{
              "type":"DT_FLOAT"
            }
          }
        },
        {
          "name":"unknown_92",
          "op":"Const",
          "attr":{
            "value":{
              "tensor":{
                "dtype":"DT_FLOAT",
                "tensorShape":{
                  "dim":[
                    {
                      "size":"256"
                    }
                  ]
                }
              }
            },
            "dtype":{
              "type":"DT_FLOAT"
            }
          }
        },
        {
          "name":"PartitionedCall/transpose_156/perm",
          "op":"Const",
          "attr":{
            "dtype":{
              "type":"DT_INT32"
            },
            "value":{
              "tensor":{
                "dtype":"DT_INT32",
                "tensorShape":{
                  "dim":[
                    {
                      "size":"4"
                    }
                  ]
                }
              }
            }
          }
        },
        {
          "name":"PartitionedCall/transpose_82/perm",
          "op":"Const",
          "attr":{
            "value":{
              "tensor":{
                "dtype":"DT_INT32",
                "tensorShape":{
                  "dim":[
                    {
                      "size":"4"
                    }
                  ]
                }
              }
            },
            "dtype":{
              "type":"DT_INT32"
            }
          }
        },
        {
          "name":"PartitionedCall/transpose_83/perm",
          "op":"Const",
          "attr":{
            "value":{
              "tensor":{
                "dtype":"DT_INT32",
                "tensorShape":{
                  "dim":[
                    {
                      "size":"4"
                    }
                  ]
                }
              }
            },
            "dtype":{
              "type":"DT_INT32"
            }
          }
        },
        {
          "name":"PartitionedCall/transpose_80/perm",
          "op":"Const",
          "attr":{
            "value":{
              "tensor":{
                "dtype":"DT_INT32",
                "tensorShape":{
                  "dim":[
                    {
                      "size":"4"
                    }
                  ]
                }
              }
            },
            "dtype":{
              "type":"DT_INT32"
            }
          }
        },
        {
          "name":"PartitionedCall/transpose_81/perm",
          "op":"Const",
          "attr":{
            "value":{
              "tensor":{
                "dtype":"DT_INT32",
                "tensorShape":{
                  "dim":[
                    {
                      "size":"4"
                    }
                  ]
                }
              }
            },
            "dtype":{
              "type":"DT_INT32"
            }
          }
        },
        {
          "name":"PartitionedCall/transpose_78/perm",
          "op":"Const",
          "attr":{
            "dtype":{
              "type":"DT_INT32"
            },
            "value":{
              "tensor":{
                "dtype":"DT_INT32",
                "tensorShape":{
                  "dim":[
                    {
                      "size":"4"
                    }
                  ]
                }
              }
            }
          }
        },
        {
          "name":"PartitionedCall/transpose_79/perm",
          "op":"Const",
          "attr":{
            "value":{
              "tensor":{
                "dtype":"DT_INT32",
                "tensorShape":{
                  "dim":[
                    {
                      "size":"4"
                    }
                  ]
                }
              }
            },
            "dtype":{
              "type":"DT_INT32"
            }
          }
        },
        {
          "name":"PartitionedCall/transpose_76/perm",
          "op":"Const",
          "attr":{
            "value":{
              "tensor":{
                "dtype":"DT_INT32",
                "tensorShape":{
                  "dim":[
                    {
                      "size":"4"
                    }
                  ]
                }
              }
            },
            "dtype":{
              "type":"DT_INT32"
            }
          }
        },
        {
          "name":"PartitionedCall/split_23",
          "op":"Const",
          "attr":{
            "dtype":{
              "type":"DT_FLOAT"
            },
            "value":{
              "tensor":{
                "dtype":"DT_FLOAT",
                "tensorShape":{
                  "dim":[
                    {
                      "size":"1"
                    },
                    {
                      "size":"1"
                    },
                    {
                      "size":"512"
                    },
                    {
                      "size":"256"
                    }
                  ]
                }
              }
            }
          }
        },
        {
          "name":"unknown_46",
          "op":"Const",
          "attr":{
            "value":{
              "tensor":{
                "dtype":"DT_FLOAT",
                "tensorShape":{
                  "dim":[
                    {
                      "size":"256"
                    }
                  ]
                }
              }
            },
            "dtype":{
              "type":"DT_FLOAT"
            }
          }
        },
        {
          "name":"PartitionedCall/transpose_77/perm",
          "op":"Const",
          "attr":{
            "dtype":{
              "type":"DT_INT32"
            },
            "value":{
              "tensor":{
                "dtype":"DT_INT32",
                "tensorShape":{
                  "dim":[
                    {
                      "size":"4"
                    }
                  ]
                }
              }
            }
          }
        },
        {
          "name":"PartitionedCall/onnx_tf_prefix_/model.34/Concat/axis",
          "op":"Const",
          "attr":{
            "dtype":{
              "type":"DT_INT32"
            },
            "value":{
              "tensor":{
                "dtype":"DT_INT32",
                "tensorShape":{
                  
                }
              }
            }
          }
        },
        {
          "name":"PartitionedCall/transpose_85/perm",
          "op":"Const",
          "attr":{
            "dtype":{
              "type":"DT_INT32"
            },
            "value":{
              "tensor":{
                "dtype":"DT_INT32",
                "tensorShape":{
                  "dim":[
                    {
                      "size":"4"
                    }
                  ]
                }
              }
            }
          }
        },
        {
          "name":"PartitionedCall/split_24",
          "op":"Const",
          "attr":{
            "value":{
              "tensor":{
                "dtype":"DT_FLOAT",
                "tensorShape":{
                  "dim":[
                    {
                      "size":"1"
                    },
                    {
                      "size":"1"
                    },
                    {
                      "size":"1024"
                    },
                    {
                      "size":"256"
                    }
                  ]
                }
              }
            },
            "dtype":{
              "type":"DT_FLOAT"
            }
          }
        },
        {
          "name":"unknown_48",
          "op":"Const",
          "attr":{
            "value":{
              "tensor":{
                "dtype":"DT_FLOAT",
                "tensorShape":{
                  "dim":[
                    {
                      "size":"256"
                    }
                  ]
                }
              }
            },
            "dtype":{
              "type":"DT_FLOAT"
            }
          }
        },
        {
          "name":"PartitionedCall/transpose_86/perm",
          "op":"Const",
          "attr":{
            "dtype":{
              "type":"DT_INT32"
            },
            "value":{
              "tensor":{
                "dtype":"DT_INT32",
                "tensorShape":{
                  "dim":[
                    {
                      "size":"4"
                    }
                  ]
                }
              }
            }
          }
        },
        {
          "name":"PartitionedCall/Const_9",
          "op":"Const",
          "attr":{
            "value":{
              "tensor":{
                "dtype":"DT_INT32",
                "tensorShape":{
                  "dim":[
                    {
                      "size":"4"
                    },
                    {
                      "size":"2"
                    }
                  ]
                }
              }
            },
            "dtype":{
              "type":"DT_INT32"
            }
          }
        },
        {
          "name":"PartitionedCall/transpose_67/perm",
          "op":"Const",
          "attr":{
            "value":{
              "tensor":{
                "dtype":"DT_INT32",
                "tensorShape":{
                  "dim":[
                    {
                      "size":"4"
                    }
                  ]
                }
              }
            },
            "dtype":{
              "type":"DT_INT32"
            }
          }
        },
        {
          "name":"PartitionedCall/split_20",
          "op":"Const",
          "attr":{
            "value":{
              "tensor":{
                "dtype":"DT_FLOAT",
                "tensorShape":{
                  "dim":[
                    {
                      "size":"3"
                    },
                    {
                      "size":"3"
                    },
                    {
                      "size":"256"
                    },
                    {
                      "size":"256"
                    }
                  ]
                }
              }
            },
            "dtype":{
              "type":"DT_FLOAT"
            }
          }
        },
        {
          "name":"unknown_40",
          "op":"Const",
          "attr":{
            "value":{
              "tensor":{
                "dtype":"DT_FLOAT",
                "tensorShape":{
                  "dim":[
                    {
                      "size":"256"
                    }
                  ]
                }
              }
            },
            "dtype":{
              "type":"DT_FLOAT"
            }
          }
        },
        {
          "name":"PartitionedCall/transpose_68/perm",
          "op":"Const",
          "attr":{
            "dtype":{
              "type":"DT_INT32"
            },
            "value":{
              "tensor":{
                "dtype":"DT_INT32",
                "tensorShape":{
                  "dim":[
                    {
                      "size":"4"
                    }
                  ]
                }
              }
            }
          }
        },
        {
          "name":"PartitionedCall/Const_8",
          "op":"Const",
          "attr":{
            "dtype":{
              "type":"DT_INT32"
            },
            "value":{
              "tensor":{
                "dtype":"DT_INT32",
                "tensorShape":{
                  "dim":[
                    {
                      "size":"4"
                    },
                    {
                      "size":"2"
                    }
                  ]
                }
              }
            }
          }
        },
        {
          "name":"PartitionedCall/transpose_64/perm",
          "op":"Const",
          "attr":{
            "value":{
              "tensor":{
                "dtype":"DT_INT32",
                "tensorShape":{
                  "dim":[
                    {
                      "size":"4"
                    }
                  ]
                }
              }
            },
            "dtype":{
              "type":"DT_INT32"
            }
          }
        },
        {
          "name":"PartitionedCall/split_19",
          "op":"Const",
          "attr":{
            "dtype":{
              "type":"DT_FLOAT"
            },
            "value":{
              "tensor":{
                "dtype":"DT_FLOAT",
                "tensorShape":{
                  "dim":[
                    {
                      "size":"3"
                    },
                    {
                      "size":"3"
                    },
                    {
                      "size":"256"
                    },
                    {
                      "size":"256"
                    }
                  ]
                }
              }
            }
          }
        },
        {
          "name":"unknown_38",
          "op":"Const",
          "attr":{
            "value":{
              "tensor":{
                "dtype":"DT_FLOAT",
                "tensorShape":{
                  "dim":[
                    {
                      "size":"256"
                    }
                  ]
                }
              }
            },
            "dtype":{
              "type":"DT_FLOAT"
            }
          }
        },
        {
          "name":"PartitionedCall/transpose_65/perm",
          "op":"Const",
          "attr":{
            "value":{
              "tensor":{
                "dtype":"DT_INT32",
                "tensorShape":{
                  "dim":[
                    {
                      "size":"4"
                    }
                  ]
                }
              }
            },
            "dtype":{
              "type":"DT_INT32"
            }
          }
        },
        {
          "name":"PartitionedCall/split_18",
          "op":"Const",
          "attr":{
            "value":{
              "tensor":{
                "dtype":"DT_FLOAT",
                "tensorShape":{
                  "dim":[
                    {
                      "size":"1"
                    },
                    {
                      "size":"1"
                    },
                    {
                      "size":"256"
                    },
                    {
                      "size":"256"
                    }
                  ]
                }
              }
            },
            "dtype":{
              "type":"DT_FLOAT"
            }
          }
        },
        {
          "name":"unknown_36",
          "op":"Const",
          "attr":{
            "value":{
              "tensor":{
                "dtype":"DT_FLOAT",
                "tensorShape":{
                  "dim":[
                    {
                      "size":"256"
                    }
                  ]
                }
              }
            },
            "dtype":{
              "type":"DT_FLOAT"
            }
          }
        },
        {
          "name":"PartitionedCall/transpose_62/perm",
          "op":"Const",
          "attr":{
            "dtype":{
              "type":"DT_INT32"
            },
            "value":{
              "tensor":{
                "dtype":"DT_INT32",
                "tensorShape":{
                  "dim":[
                    {
                      "size":"4"
                    }
                  ]
                }
              }
            }
          }
        },
        {
          "name":"PartitionedCall/Const_7",
          "op":"Const",
          "attr":{
            "dtype":{
              "type":"DT_INT32"
            },
            "value":{
              "tensor":{
                "dtype":"DT_INT32",
                "tensorShape":{
                  "dim":[
                    {
                      "size":"4"
                    },
                    {
                      "size":"2"
                    }
                  ]
                }
              }
            }
          }
        },
        {
          "name":"PartitionedCall/transpose_50/perm",
          "op":"Const",
          "attr":{
            "dtype":{
              "type":"DT_INT32"
            },
            "value":{
              "tensor":{
                "dtype":"DT_INT32",
                "tensorShape":{
                  "dim":[
                    {
                      "size":"4"
                    }
                  ]
                }
              }
            }
          }
        },
        {
          "name":"PartitionedCall/split_15",
          "op":"Const",
          "attr":{
            "value":{
              "tensor":{
                "dtype":"DT_FLOAT",
                "tensorShape":{
                  "dim":[
                    {
                      "size":"3"
                    },
                    {
                      "size":"3"
                    },
                    {
                      "size":"128"
                    },
                    {
                      "size":"128"
                    }
                  ]
                }
              }
            },
            "dtype":{
              "type":"DT_FLOAT"
            }
          }
        },
        {
          "name":"unknown_30",
          "op":"Const",
          "attr":{
            "value":{
              "tensor":{
                "dtype":"DT_FLOAT",
                "tensorShape":{
                  "dim":[
                    {
                      "size":"128"
                    }
                  ]
                }
              }
            },
            "dtype":{
              "type":"DT_FLOAT"
            }
          }
        },
        {
          "name":"PartitionedCall/transpose_51/perm",
          "op":"Const",
          "attr":{
            "dtype":{
              "type":"DT_INT32"
            },
            "value":{
              "tensor":{
                "dtype":"DT_INT32",
                "tensorShape":{
                  "dim":[
                    {
                      "size":"4"
                    }
                  ]
                }
              }
            }
          }
        },
        {
          "name":"PartitionedCall/Const_6",
          "op":"Const",
          "attr":{
            "value":{
              "tensor":{
                "dtype":"DT_INT32",
                "tensorShape":{
                  "dim":[
                    {
                      "size":"4"
                    },
                    {
                      "size":"2"
                    }
                  ]
                }
              }
            },
            "dtype":{
              "type":"DT_INT32"
            }
          }
        },
        {
          "name":"PartitionedCall/transpose_47/perm",
          "op":"Const",
          "attr":{
            "dtype":{
              "type":"DT_INT32"
            },
            "value":{
              "tensor":{
                "dtype":"DT_INT32",
                "tensorShape":{
                  "dim":[
                    {
                      "size":"4"
                    }
                  ]
                }
              }
            }
          }
        },
        {
          "name":"PartitionedCall/split_14",
          "op":"Const",
          "attr":{
            "dtype":{
              "type":"DT_FLOAT"
            },
            "value":{
              "tensor":{
                "dtype":"DT_FLOAT",
                "tensorShape":{
                  "dim":[
                    {
                      "size":"3"
                    },
                    {
                      "size":"3"
                    },
                    {
                      "size":"128"
                    },
                    {
                      "size":"128"
                    }
                  ]
                }
              }
            }
          }
        },
        {
          "name":"unknown_28",
          "op":"Const",
          "attr":{
            "value":{
              "tensor":{
                "dtype":"DT_FLOAT",
                "tensorShape":{
                  "dim":[
                    {
                      "size":"128"
                    }
                  ]
                }
              }
            },
            "dtype":{
              "type":"DT_FLOAT"
            }
          }
        },
        {
          "name":"PartitionedCall/transpose_48/perm",
          "op":"Const",
          "attr":{
            "value":{
              "tensor":{
                "dtype":"DT_INT32",
                "tensorShape":{
                  "dim":[
                    {
                      "size":"4"
                    }
                  ]
                }
              }
            },
            "dtype":{
              "type":"DT_INT32"
            }
          }
        },
        {
          "name":"PartitionedCall/split_13",
          "op":"Const",
          "attr":{
            "value":{
              "tensor":{
                "dtype":"DT_FLOAT",
                "tensorShape":{
                  "dim":[
                    {
                      "size":"1"
                    },
                    {
                      "size":"1"
                    },
                    {
                      "size":"128"
                    },
                    {
                      "size":"128"
                    }
                  ]
                }
              }
            },
            "dtype":{
              "type":"DT_FLOAT"
            }
          }
        },
        {
          "name":"unknown_26",
          "op":"Const",
          "attr":{
            "dtype":{
              "type":"DT_FLOAT"
            },
            "value":{
              "tensor":{
                "dtype":"DT_FLOAT",
                "tensorShape":{
                  "dim":[
                    {
                      "size":"128"
                    }
                  ]
                }
              }
            }
          }
        },
        {
          "name":"PartitionedCall/transpose_45/perm",
          "op":"Const",
          "attr":{
            "value":{
              "tensor":{
                "dtype":"DT_INT32",
                "tensorShape":{
                  "dim":[
                    {
                      "size":"4"
                    }
                  ]
                }
              }
            },
            "dtype":{
              "type":"DT_INT32"
            }
          }
        },
        {
          "name":"PartitionedCall/Const_5",
          "op":"Const",
          "attr":{
            "dtype":{
              "type":"DT_INT32"
            },
            "value":{
              "tensor":{
                "dtype":"DT_INT32",
                "tensorShape":{
                  "dim":[
                    {
                      "size":"4"
                    },
                    {
                      "size":"2"
                    }
                  ]
                }
              }
            }
          }
        },
        {
          "name":"PartitionedCall/transpose_33/perm",
          "op":"Const",
          "attr":{
            "dtype":{
              "type":"DT_INT32"
            },
            "value":{
              "tensor":{
                "dtype":"DT_INT32",
                "tensorShape":{
                  "dim":[
                    {
                      "size":"4"
                    }
                  ]
                }
              }
            }
          }
        },
        {
          "name":"PartitionedCall/split_10",
          "op":"Const",
          "attr":{
            "dtype":{
              "type":"DT_FLOAT"
            },
            "value":{
              "tensor":{
                "dtype":"DT_FLOAT",
                "tensorShape":{
                  "dim":[
                    {
                      "size":"3"
                    },
                    {
                      "size":"3"
                    },
                    {
                      "size":"64"
                    },
                    {
                      "size":"64"
                    }
                  ]
                }
              }
            }
          }
        },
        {
          "name":"unknown_20",
          "op":"Const",
          "attr":{
            "value":{
              "tensor":{
                "dtype":"DT_FLOAT",
                "tensorShape":{
                  "dim":[
                    {
                      "size":"64"
                    }
                  ]
                }
              }
            },
            "dtype":{
              "type":"DT_FLOAT"
            }
          }
        },
        {
          "name":"PartitionedCall/transpose_34/perm",
          "op":"Const",
          "attr":{
            "value":{
              "tensor":{
                "dtype":"DT_INT32",
                "tensorShape":{
                  "dim":[
                    {
                      "size":"4"
                    }
                  ]
                }
              }
            },
            "dtype":{
              "type":"DT_INT32"
            }
          }
        },
        {
          "name":"PartitionedCall/Const_4",
          "op":"Const",
          "attr":{
            "value":{
              "tensor":{
                "dtype":"DT_INT32",
                "tensorShape":{
                  "dim":[
                    {
                      "size":"4"
                    },
                    {
                      "size":"2"
                    }
                  ]
                }
              }
            },
            "dtype":{
              "type":"DT_INT32"
            }
          }
        },
        {
          "name":"PartitionedCall/transpose_30/perm",
          "op":"Const",
          "attr":{
            "value":{
              "tensor":{
                "dtype":"DT_INT32",
                "tensorShape":{
                  "dim":[
                    {
                      "size":"4"
                    }
                  ]
                }
              }
            },
            "dtype":{
              "type":"DT_INT32"
            }
          }
        },
        {
          "name":"PartitionedCall/split_9",
          "op":"Const",
          "attr":{
            "dtype":{
              "type":"DT_FLOAT"
            },
            "value":{
              "tensor":{
                "dtype":"DT_FLOAT",
                "tensorShape":{
                  "dim":[
                    {
                      "size":"3"
                    },
                    {
                      "size":"3"
                    },
                    {
                      "size":"64"
                    },
                    {
                      "size":"64"
                    }
                  ]
                }
              }
            }
          }
        },
        {
          "name":"unknown_18",
          "op":"Const",
          "attr":{
            "dtype":{
              "type":"DT_FLOAT"
            },
            "value":{
              "tensor":{
                "dtype":"DT_FLOAT",
                "tensorShape":{
                  "dim":[
                    {
                      "size":"64"
                    }
                  ]
                }
              }
            }
          }
        },
        {
          "name":"PartitionedCall/transpose_31/perm",
          "op":"Const",
          "attr":{
            "value":{
              "tensor":{
                "dtype":"DT_INT32",
                "tensorShape":{
                  "dim":[
                    {
                      "size":"4"
                    }
                  ]
                }
              }
            },
            "dtype":{
              "type":"DT_INT32"
            }
          }
        },
        {
          "name":"PartitionedCall/split_8",
          "op":"Const",
          "attr":{
            "dtype":{
              "type":"DT_FLOAT"
            },
            "value":{
              "tensor":{
                "dtype":"DT_FLOAT",
                "tensorShape":{
                  "dim":[
                    {
                      "size":"1"
                    },
                    {
                      "size":"1"
                    },
                    {
                      "size":"64"
                    },
                    {
                      "size":"64"
                    }
                  ]
                }
              }
            }
          }
        },
        {
          "name":"unknown_16",
          "op":"Const",
          "attr":{
            "dtype":{
              "type":"DT_FLOAT"
            },
            "value":{
              "tensor":{
                "dtype":"DT_FLOAT",
                "tensorShape":{
                  "dim":[
                    {
                      "size":"64"
                    }
                  ]
                }
              }
            }
          }
        },
        {
          "name":"PartitionedCall/transpose_28/perm",
          "op":"Const",
          "attr":{
            "value":{
              "tensor":{
                "dtype":"DT_INT32",
                "tensorShape":{
                  "dim":[
                    {
                      "size":"4"
                    }
                  ]
                }
              }
            },
            "dtype":{
              "type":"DT_INT32"
            }
          }
        },
        {
          "name":"PartitionedCall/Const_3",
          "op":"Const",
          "attr":{
            "dtype":{
              "type":"DT_INT32"
            },
            "value":{
              "tensor":{
                "dtype":"DT_INT32",
                "tensorShape":{
                  "dim":[
                    {
                      "size":"4"
                    },
                    {
                      "size":"2"
                    }
                  ]
                }
              }
            }
          }
        },
        {
          "name":"PartitionedCall/transpose_16/perm",
          "op":"Const",
          "attr":{
            "dtype":{
              "type":"DT_INT32"
            },
            "value":{
              "tensor":{
                "dtype":"DT_INT32",
                "tensorShape":{
                  "dim":[
                    {
                      "size":"4"
                    }
                  ]
                }
              }
            }
          }
        },
        {
          "name":"PartitionedCall/split_5",
          "op":"Const",
          "attr":{
            "value":{
              "tensor":{
                "dtype":"DT_FLOAT",
                "tensorShape":{
                  "dim":[
                    {
                      "size":"3"
                    },
                    {
                      "size":"3"
                    },
                    {
                      "size":"32"
                    },
                    {
                      "size":"32"
                    }
                  ]
                }
              }
            },
            "dtype":{
              "type":"DT_FLOAT"
            }
          }
        },
        {
          "name":"unknown_10",
          "op":"Const",
          "attr":{
            "dtype":{
              "type":"DT_FLOAT"
            },
            "value":{
              "tensor":{
                "dtype":"DT_FLOAT",
                "tensorShape":{
                  "dim":[
                    {
                      "size":"32"
                    }
                  ]
                }
              }
            }
          }
        },
        {
          "name":"PartitionedCall/transpose_17/perm",
          "op":"Const",
          "attr":{
            "value":{
              "tensor":{
                "dtype":"DT_INT32",
                "tensorShape":{
                  "dim":[
                    {
                      "size":"4"
                    }
                  ]
                }
              }
            },
            "dtype":{
              "type":"DT_INT32"
            }
          }
        },
        {
          "name":"PartitionedCall/Const_2",
          "op":"Const",
          "attr":{
            "value":{
              "tensor":{
                "dtype":"DT_INT32",
                "tensorShape":{
                  "dim":[
                    {
                      "size":"4"
                    },
                    {
                      "size":"2"
                    }
                  ]
                }
              }
            },
            "dtype":{
              "type":"DT_INT32"
            }
          }
        },
        {
          "name":"PartitionedCall/transpose_13/perm",
          "op":"Const",
          "attr":{
            "dtype":{
              "type":"DT_INT32"
            },
            "value":{
              "tensor":{
                "dtype":"DT_INT32",
                "tensorShape":{
                  "dim":[
                    {
                      "size":"4"
                    }
                  ]
                }
              }
            }
          }
        },
        {
          "name":"PartitionedCall/split_4",
          "op":"Const",
          "attr":{
            "dtype":{
              "type":"DT_FLOAT"
            },
            "value":{
              "tensor":{
                "dtype":"DT_FLOAT",
                "tensorShape":{
                  "dim":[
                    {
                      "size":"3"
                    },
                    {
                      "size":"3"
                    },
                    {
                      "size":"32"
                    },
                    {
                      "size":"32"
                    }
                  ]
                }
              }
            }
          }
        },
        {
          "name":"unknown_8",
          "op":"Const",
          "attr":{
            "dtype":{
              "type":"DT_FLOAT"
            },
            "value":{
              "tensor":{
                "dtype":"DT_FLOAT",
                "tensorShape":{
                  "dim":[
                    {
                      "size":"32"
                    }
                  ]
                }
              }
            }
          }
        },
        {
          "name":"PartitionedCall/transpose_14/perm",
          "op":"Const",
          "attr":{
            "dtype":{
              "type":"DT_INT32"
            },
            "value":{
              "tensor":{
                "dtype":"DT_INT32",
                "tensorShape":{
                  "dim":[
                    {
                      "size":"4"
                    }
                  ]
                }
              }
            }
          }
        },
        {
          "name":"PartitionedCall/transpose_10/perm",
          "op":"Const",
          "attr":{
            "value":{
              "tensor":{
                "dtype":"DT_INT32",
                "tensorShape":{
                  "dim":[
                    {
                      "size":"4"
                    }
                  ]
                }
              }
            },
            "dtype":{
              "type":"DT_INT32"
            }
          }
        },
        {
          "name":"PartitionedCall/split_3",
          "op":"Const",
          "attr":{
            "value":{
              "tensor":{
                "dtype":"DT_FLOAT",
                "tensorShape":{
                  "dim":[
                    {
                      "size":"1"
                    },
                    {
                      "size":"1"
                    },
                    {
                      "size":"64"
                    },
                    {
                      "size":"32"
                    }
                  ]
                }
              }
            },
            "dtype":{
              "type":"DT_FLOAT"
            }
          }
        },
        {
          "name":"unknown_6",
          "op":"Const",
          "attr":{
            "value":{
              "tensor":{
                "dtype":"DT_FLOAT",
                "tensorShape":{
                  "dim":[
                    {
                      "size":"32"
                    }
                  ]
                }
              }
            },
            "dtype":{
              "type":"DT_FLOAT"
            }
          }
        },
        {
          "name":"PartitionedCall/transpose_11/perm",
          "op":"Const",
          "attr":{
            "value":{
              "tensor":{
                "dtype":"DT_INT32",
                "tensorShape":{
                  "dim":[
                    {
                      "size":"4"
                    }
                  ]
                }
              }
            },
            "dtype":{
              "type":"DT_INT32"
            }
          }
        },
        {
          "name":"PartitionedCall/Const",
          "op":"Const",
          "attr":{
            "dtype":{
              "type":"DT_INT32"
            },
            "value":{
              "tensor":{
                "dtype":"DT_INT32",
                "tensorShape":{
                  "dim":[
                    {
                      "size":"4"
                    },
                    {
                      "size":"2"
                    }
                  ]
                }
              }
            }
          }
        },
        {
          "name":"PartitionedCall/transpose_1/perm",
          "op":"Const",
          "attr":{
            "dtype":{
              "type":"DT_INT32"
            },
            "value":{
              "tensor":{
                "dtype":"DT_INT32",
                "tensorShape":{
                  "dim":[
                    {
                      "size":"4"
                    }
                  ]
                }
              }
            }
          }
        },
        {
          "name":"PartitionedCall/split",
          "op":"Const",
          "attr":{
            "dtype":{
              "type":"DT_FLOAT"
            },
            "value":{
              "tensor":{
                "dtype":"DT_FLOAT",
                "tensorShape":{
                  "dim":[
                    {
                      "size":"3"
                    },
                    {
                      "size":"3"
                    },
                    {
                      "size":"3"
                    },
                    {
                      "size":"32"
                    }
                  ]
                }
              }
            }
          }
        },
        {
          "name":"unknown_0",
          "op":"Const",
          "attr":{
            "value":{
              "tensor":{
                "dtype":"DT_FLOAT",
                "tensorShape":{
                  "dim":[
                    {
                      "size":"32"
                    }
                  ]
                }
              }
            },
            "dtype":{
              "type":"DT_FLOAT"
            }
          }
        },
        {
          "name":"PartitionedCall/transpose_2/perm",
          "op":"Const",
          "attr":{
            "value":{
              "tensor":{
                "dtype":"DT_INT32",
                "tensorShape":{
                  "dim":[
                    {
                      "size":"4"
                    }
                  ]
                }
              }
            },
            "dtype":{
              "type":"DT_INT32"
            }
          }
        },
        {
          "name":"PartitionedCall/Const_1",
          "op":"Const",
          "attr":{
            "dtype":{
              "type":"DT_INT32"
            },
            "value":{
              "tensor":{
                "dtype":"DT_INT32",
                "tensorShape":{
                  "dim":[
                    {
                      "size":"4"
                    },
                    {
                      "size":"2"
                    }
                  ]
                }
              }
            }
          }
        },
        {
          "name":"PartitionedCall/transpose_4/perm",
          "op":"Const",
          "attr":{
            "value":{
              "tensor":{
                "dtype":"DT_INT32",
                "tensorShape":{
                  "dim":[
                    {
                      "size":"4"
                    }
                  ]
                }
              }
            },
            "dtype":{
              "type":"DT_INT32"
            }
          }
        },
        {
          "name":"PartitionedCall/split_1",
          "op":"Const",
          "attr":{
            "dtype":{
              "type":"DT_FLOAT"
            },
            "value":{
              "tensor":{
                "dtype":"DT_FLOAT",
                "tensorShape":{
                  "dim":[
                    {
                      "size":"3"
                    },
                    {
                      "size":"3"
                    },
                    {
                      "size":"32"
                    },
                    {
                      "size":"64"
                    }
                  ]
                }
              }
            }
          }
        },
        {
          "name":"unknown_2",
          "op":"Const",
          "attr":{
            "value":{
              "tensor":{
                "dtype":"DT_FLOAT",
                "tensorShape":{
                  "dim":[
                    {
                      "size":"64"
                    }
                  ]
                }
              }
            },
            "dtype":{
              "type":"DT_FLOAT"
            }
          }
        },
        {
          "name":"PartitionedCall/transpose_5/perm",
          "op":"Const",
          "attr":{
            "dtype":{
              "type":"DT_INT32"
            },
            "value":{
              "tensor":{
                "dtype":"DT_INT32",
                "tensorShape":{
                  "dim":[
                    {
                      "size":"4"
                    }
                  ]
                }
              }
            }
          }
        },
        {
          "name":"PartitionedCall/transpose_7/perm",
          "op":"Const",
          "attr":{
            "dtype":{
              "type":"DT_INT32"
            },
            "value":{
              "tensor":{
                "dtype":"DT_INT32",
                "tensorShape":{
                  "dim":[
                    {
                      "size":"4"
                    }
                  ]
                }
              }
            }
          }
        },
        {
          "name":"PartitionedCall/split_2",
          "op":"Const",
          "attr":{
            "dtype":{
              "type":"DT_FLOAT"
            },
            "value":{
              "tensor":{
                "dtype":"DT_FLOAT",
                "tensorShape":{
                  "dim":[
                    {
                      "size":"1"
                    },
                    {
                      "size":"1"
                    },
                    {
                      "size":"64"
                    },
                    {
                      "size":"32"
                    }
                  ]
                }
              }
            }
          }
        },
        {
          "name":"unknown_4",
          "op":"Const",
          "attr":{
            "dtype":{
              "type":"DT_FLOAT"
            },
            "value":{
              "tensor":{
                "dtype":"DT_FLOAT",
                "tensorShape":{
                  "dim":[
                    {
                      "size":"32"
                    }
                  ]
                }
              }
            }
          }
        },
        {
          "name":"PartitionedCall/transpose_8/perm",
          "op":"Const",
          "attr":{
            "value":{
              "tensor":{
                "dtype":"DT_INT32",
                "tensorShape":{
                  "dim":[
                    {
                      "size":"4"
                    }
                  ]
                }
              }
            },
            "dtype":{
              "type":"DT_INT32"
            }
          }
        },
        {
          "name":"PartitionedCall/onnx_tf_prefix_/model.6/Concat/axis",
          "op":"Const",
          "attr":{
            "value":{
              "tensor":{
                "dtype":"DT_INT32",
                "tensorShape":{
                  
                }
              }
            },
            "dtype":{
              "type":"DT_INT32"
            }
          }
        },
        {
          "name":"PartitionedCall/transpose_19/perm",
          "op":"Const",
          "attr":{
            "dtype":{
              "type":"DT_INT32"
            },
            "value":{
              "tensor":{
                "dtype":"DT_INT32",
                "tensorShape":{
                  "dim":[
                    {
                      "size":"4"
                    }
                  ]
                }
              }
            }
          }
        },
        {
          "name":"PartitionedCall/split_6",
          "op":"Const",
          "attr":{
            "value":{
              "tensor":{
                "dtype":"DT_FLOAT",
                "tensorShape":{
                  "dim":[
                    {
                      "size":"1"
                    },
                    {
                      "size":"1"
                    },
                    {
                      "size":"128"
                    },
                    {
                      "size":"64"
                    }
                  ]
                }
              }
            },
            "dtype":{
              "type":"DT_FLOAT"
            }
          }
        },
        {
          "name":"unknown_12",
          "op":"Const",
          "attr":{
            "dtype":{
              "type":"DT_FLOAT"
            },
            "value":{
              "tensor":{
                "dtype":"DT_FLOAT",
                "tensorShape":{
                  "dim":[
                    {
                      "size":"64"
                    }
                  ]
                }
              }
            }
          }
        },
        {
          "name":"PartitionedCall/transpose_20/perm",
          "op":"Const",
          "attr":{
            "dtype":{
              "type":"DT_INT32"
            },
            "value":{
              "tensor":{
                "dtype":"DT_INT32",
                "tensorShape":{
                  "dim":[
                    {
                      "size":"4"
                    }
                  ]
                }
              }
            }
          }
        },
        {
          "name":"PartitionedCall/transpose_21/perm",
          "op":"Const",
          "attr":{
            "dtype":{
              "type":"DT_INT32"
            },
            "value":{
              "tensor":{
                "dtype":"DT_INT32",
                "tensorShape":{
                  "dim":[
                    {
                      "size":"4"
                    }
                  ]
                }
              }
            }
          }
        },
        {
          "name":"PartitionedCall/split_7",
          "op":"Const",
          "attr":{
            "dtype":{
              "type":"DT_FLOAT"
            },
            "value":{
              "tensor":{
                "dtype":"DT_FLOAT",
                "tensorShape":{
                  "dim":[
                    {
                      "size":"1"
                    },
                    {
                      "size":"1"
                    },
                    {
                      "size":"64"
                    },
                    {
                      "size":"64"
                    }
                  ]
                }
              }
            }
          }
        },
        {
          "name":"unknown_14",
          "op":"Const",
          "attr":{
            "value":{
              "tensor":{
                "dtype":"DT_FLOAT",
                "tensorShape":{
                  "dim":[
                    {
                      "size":"64"
                    }
                  ]
                }
              }
            },
            "dtype":{
              "type":"DT_FLOAT"
            }
          }
        },
        {
          "name":"PartitionedCall/transpose_25/perm",
          "op":"Const",
          "attr":{
            "value":{
              "tensor":{
                "dtype":"DT_INT32",
                "tensorShape":{
                  "dim":[
                    {
                      "size":"4"
                    }
                  ]
                }
              }
            },
            "dtype":{
              "type":"DT_INT32"
            }
          }
        },
        {
          "name":"PartitionedCall/onnx_tf_prefix_/model.13/Concat/axis",
          "op":"Const",
          "attr":{
            "dtype":{
              "type":"DT_INT32"
            },
            "value":{
              "tensor":{
                "dtype":"DT_INT32",
                "tensorShape":{
                  
                }
              }
            }
          }
        },
        {
          "name":"PartitionedCall/transpose_36/perm",
          "op":"Const",
          "attr":{
            "dtype":{
              "type":"DT_INT32"
            },
            "value":{
              "tensor":{
                "dtype":"DT_INT32",
                "tensorShape":{
                  "dim":[
                    {
                      "size":"4"
                    }
                  ]
                }
              }
            }
          }
        },
        {
          "name":"PartitionedCall/split_11",
          "op":"Const",
          "attr":{
            "value":{
              "tensor":{
                "dtype":"DT_FLOAT",
                "tensorShape":{
                  "dim":[
                    {
                      "size":"1"
                    },
                    {
                      "size":"1"
                    },
                    {
                      "size":"256"
                    },
                    {
                      "size":"128"
                    }
                  ]
                }
              }
            },
            "dtype":{
              "type":"DT_FLOAT"
            }
          }
        },
        {
          "name":"unknown_22",
          "op":"Const",
          "attr":{
            "dtype":{
              "type":"DT_FLOAT"
            },
            "value":{
              "tensor":{
                "dtype":"DT_FLOAT",
                "tensorShape":{
                  "dim":[
                    {
                      "size":"128"
                    }
                  ]
                }
              }
            }
          }
        },
        {
          "name":"PartitionedCall/transpose_37/perm",
          "op":"Const",
          "attr":{
            "dtype":{
              "type":"DT_INT32"
            },
            "value":{
              "tensor":{
                "dtype":"DT_INT32",
                "tensorShape":{
                  "dim":[
                    {
                      "size":"4"
                    }
                  ]
                }
              }
            }
          }
        },
        {
          "name":"PartitionedCall/transpose_38/perm",
          "op":"Const",
          "attr":{
            "value":{
              "tensor":{
                "dtype":"DT_INT32",
                "tensorShape":{
                  "dim":[
                    {
                      "size":"4"
                    }
                  ]
                }
              }
            },
            "dtype":{
              "type":"DT_INT32"
            }
          }
        },
        {
          "name":"PartitionedCall/split_12",
          "op":"Const",
          "attr":{
            "value":{
              "tensor":{
                "dtype":"DT_FLOAT",
                "tensorShape":{
                  "dim":[
                    {
                      "size":"1"
                    },
                    {
                      "size":"1"
                    },
                    {
                      "size":"128"
                    },
                    {
                      "size":"128"
                    }
                  ]
                }
              }
            },
            "dtype":{
              "type":"DT_FLOAT"
            }
          }
        },
        {
          "name":"unknown_24",
          "op":"Const",
          "attr":{
            "value":{
              "tensor":{
                "dtype":"DT_FLOAT",
                "tensorShape":{
                  "dim":[
                    {
                      "size":"128"
                    }
                  ]
                }
              }
            },
            "dtype":{
              "type":"DT_FLOAT"
            }
          }
        },
        {
          "name":"PartitionedCall/transpose_42/perm",
          "op":"Const",
          "attr":{
            "dtype":{
              "type":"DT_INT32"
            },
            "value":{
              "tensor":{
                "dtype":"DT_INT32",
                "tensorShape":{
                  "dim":[
                    {
                      "size":"4"
                    }
                  ]
                }
              }
            }
          }
        },
        {
          "name":"PartitionedCall/onnx_tf_prefix_/model.20/Concat/axis",
          "op":"Const",
          "attr":{
            "value":{
              "tensor":{
                "dtype":"DT_INT32",
                "tensorShape":{
                  
                }
              }
            },
            "dtype":{
              "type":"DT_INT32"
            }
          }
        },
        {
          "name":"PartitionedCall/transpose_53/perm",
          "op":"Const",
          "attr":{
            "value":{
              "tensor":{
                "dtype":"DT_INT32",
                "tensorShape":{
                  "dim":[
                    {
                      "size":"4"
                    }
                  ]
                }
              }
            },
            "dtype":{
              "type":"DT_INT32"
            }
          }
        },
        {
          "name":"PartitionedCall/split_16",
          "op":"Const",
          "attr":{
            "dtype":{
              "type":"DT_FLOAT"
            },
            "value":{
              "tensor":{
                "dtype":"DT_FLOAT",
                "tensorShape":{
                  "dim":[
                    {
                      "size":"1"
                    },
                    {
                      "size":"1"
                    },
                    {
                      "size":"512"
                    },
                    {
                      "size":"256"
                    }
                  ]
                }
              }
            }
          }
        },
        {
          "name":"unknown_32",
          "op":"Const",
          "attr":{
            "dtype":{
              "type":"DT_FLOAT"
            },
            "value":{
              "tensor":{
                "dtype":"DT_FLOAT",
                "tensorShape":{
                  "dim":[
                    {
                      "size":"256"
                    }
                  ]
                }
              }
            }
          }
        },
        {
          "name":"PartitionedCall/transpose_54/perm",
          "op":"Const",
          "attr":{
            "value":{
              "tensor":{
                "dtype":"DT_INT32",
                "tensorShape":{
                  "dim":[
                    {
                      "size":"4"
                    }
                  ]
                }
              }
            },
            "dtype":{
              "type":"DT_INT32"
            }
          }
        },
        {
          "name":"PartitionedCall/transpose_55/perm",
          "op":"Const",
          "attr":{
            "value":{
              "tensor":{
                "dtype":"DT_INT32",
                "tensorShape":{
                  "dim":[
                    {
                      "size":"4"
                    }
                  ]
                }
              }
            },
            "dtype":{
              "type":"DT_INT32"
            }
          }
        },
        {
          "name":"PartitionedCall/split_17",
          "op":"Const",
          "attr":{
            "value":{
              "tensor":{
                "dtype":"DT_FLOAT",
                "tensorShape":{
                  "dim":[
                    {
                      "size":"1"
                    },
                    {
                      "size":"1"
                    },
                    {
                      "size":"256"
                    },
                    {
                      "size":"256"
                    }
                  ]
                }
              }
            },
            "dtype":{
              "type":"DT_FLOAT"
            }
          }
        },
        {
          "name":"unknown_34",
          "op":"Const",
          "attr":{
            "value":{
              "tensor":{
                "dtype":"DT_FLOAT",
                "tensorShape":{
                  "dim":[
                    {
                      "size":"256"
                    }
                  ]
                }
              }
            },
            "dtype":{
              "type":"DT_FLOAT"
            }
          }
        },
        {
          "name":"PartitionedCall/transpose_59/perm",
          "op":"Const",
          "attr":{
            "value":{
              "tensor":{
                "dtype":"DT_INT32",
                "tensorShape":{
                  "dim":[
                    {
                      "size":"4"
                    }
                  ]
                }
              }
            },
            "dtype":{
…
              1,
              1,
              256,
              255
            ],
            "dtype":"float32"
          },
          {
            "name":"unknown_112",
            "shape":[
              255
            ],
            "dtype":"float32"
          },
          {
            "name":"PartitionedCall/transpose_186/perm",
            "shape":[
              4
            ],
            "dtype":"int32"
          },
          {
            "name":"PartitionedCall/onnx_tf_prefix_/model.77/Constant_6",
            "shape":[
              5
            ],
            "dtype":"int32"
          },
          {
            "name":"PartitionedCall/Where_2",
            "shape":[
              0,
              1
            ],
            "dtype":"int32"
          },
          {
            "name":"PartitionedCall/Cast_6",
            "shape":[
              1
            ],
            "dtype":"int32"
          },
          {
            "name":"PartitionedCall/GatherV2_2",
            "shape":[
              0
            ],
            "dtype":"int32"
          },
          {
            "name":"PartitionedCall/zeros_2",
            "shape":[
              
            ],
            "dtype":"int32"
          },
          {
            "name":"PartitionedCall/onnx_tf_prefix_/model.77/Transpose_1/perm",
            "shape":[
              5
            ],
            "dtype":"int32"
          },
          {
            "name":"PartitionedCall/Const_29",
            "shape":[
              3
            ],
            "dtype":"int32"
          },
          {
            "name":"PartitionedCall/onnx_tf_prefix_/model.77/Split_1/split_dim",
            "shape":[
              
            ],
            "dtype":"int32"
          },
          {
            "name":"PartitionedCall/onnx_tf_prefix_/model.77/Concat_1/axis",
            "shape":[
              
            ],
            "dtype":"int32"
          },
          {
            "name":"PartitionedCall/onnx_tf_prefix_/model.77/Constant_11",
            "shape":[
              3
            ],
            "dtype":"int32"
          },
          {
            "name":"PartitionedCall/Where_3",
            "shape":[
              0,
              1
            ],
            "dtype":"int32"
          },
          {
            "name":"PartitionedCall/Cast_7",
            "shape":[
              1
            ],
            "dtype":"int32"
          },
          {
            "name":"PartitionedCall/GatherV2_3",
            "shape":[
              0
            ],
            "dtype":"int32"
          },
          {
            "name":"PartitionedCall/zeros_3",
            "shape":[
              
            ],
            "dtype":"int32"
          },
          {
            "name":"PartitionedCall/onnx_tf_prefix_/model.77/Constant_13",
            "shape":[
              
            ],
            "dtype":"float32"
          },
          {
            "name":"PartitionedCall/onnx_tf_prefix_/model.77/Constant_14",
            "shape":[
              1,
              1,
              20,
              20,
              2
            ],
            "dtype":"float32"
          },
          {
            "name":"PartitionedCall/onnx_tf_prefix_/model.77/Constant_16",
            "shape":[
              1,
              3,
              1,
              1,
              2
            ],
            "dtype":"float32"
          },
          {
            "name":"PartitionedCall/Const_21",
            "shape":[
              4,
              2
            ],
            "dtype":"int32"
          },
          {
            "name":"PartitionedCall/transpose_167/perm",
            "shape":[
              4
            ],
            "dtype":"int32"
          },
          {
            "name":"PartitionedCall/split_50",
            "shape":[
              3,
              3,
              128,
              128
            ],
            "dtype":"float32"
          },
          {
            "name":"unknown_100",
            "shape":[
              128
            ],
            "dtype":"float32"
          },
          {
            "name":"PartitionedCall/transpose_168/perm",
            "shape":[
              4
            ],
            "dtype":"int32"
          },
          {
            "name":"PartitionedCall/Const_20",
            "shape":[
              4,
              2
            ],
            "dtype":"int32"
          },
          {
            "name":"PartitionedCall/transpose_164/perm",
            "shape":[
              4
            ],
            "dtype":"int32"
          },
          {
            "name":"PartitionedCall/split_49",
            "shape":[
              3,
              3,
              128,
              128
            ],
            "dtype":"float32"
          },
          {
            "name":"unknown_98",
            "shape":[
              128
            ],
            "dtype":"float32"
          },
          {
            "name":"PartitionedCall/transpose_165/perm",
            "shape":[
              4
            ],
            "dtype":"int32"
          },
          {
            "name":"PartitionedCall/transpose_161/perm",
            "shape":[
              4
            ],
            "dtype":"int32"
          },
          {
            "name":"PartitionedCall/split_48",
            "shape":[
              1,
              1,
              512,
              128
            ],
            "dtype":"float32"
          },
          {
            "name":"unknown_96",
            "shape":[
              128
            ],
            "dtype":"float32"
          },
          {
            "name":"PartitionedCall/transpose_162/perm",
            "shape":[
              4
            ],
            "dtype":"int32"
          },
          {
            "name":"PartitionedCall/Const_18",
            "shape":[
              4,
              2
            ],
            "dtype":"int32"
          },
          {
            "name":"PartitionedCall/transpose_149/perm",
            "shape":[
              4
            ],
            "dtype":"int32"
          },
          {
            "name":"PartitionedCall/split_44",
            "shape":[
              3,
              3,
              64,
              64
            ],
            "dtype":"float32"
          },
          {
            "name":"unknown_88",
            "shape":[
              64
            ],
            "dtype":"float32"
          },
          {
            "name":"PartitionedCall/transpose_150/perm",
            "shape":[
              4
            ],
            "dtype":"int32"
          },
          {
            "name":"PartitionedCall/Const_17",
            "shape":[
              4,
              2
            ],
            "dtype":"int32"
          },
          {
            "name":"PartitionedCall/transpose_146/perm",
            "shape":[
              4
            ],
            "dtype":"int32"
          },
          {
            "name":"PartitionedCall/split_43",
            "shape":[
              3,
              3,
              64,
              64
            ],
            "dtype":"float32"
          },
          {
            "name":"unknown_86",
            "shape":[
              64
            ],
            "dtype":"float32"
          },
          {
            "name":"PartitionedCall/transpose_147/perm",
            "shape":[
              4
            ],
            "dtype":"int32"
          },
          {
            "name":"PartitionedCall/transpose_143/perm",
            "shape":[
              4
            ],
            "dtype":"int32"
          },
          {
            "name":"PartitionedCall/split_42",
            "shape":[
              1,
              1,
              256,
              64
            ],
            "dtype":"float32"
          },
          {
            "name":"unknown_84",
            "shape":[
              64
            ],
            "dtype":"float32"
          },
          {
            "name":"PartitionedCall/transpose_144/perm",
            "shape":[
              4
            ],
            "dtype":"int32"
          },
          {
            "name":"PartitionedCall/Const_15",
            "shape":[
              4,
              2
            ],
            "dtype":"int32"
          },
          {
            "name":"PartitionedCall/transpose_131/perm",
            "shape":[
              4
            ],
            "dtype":"int32"
          },
          {
            "name":"PartitionedCall/split_38",
            "shape":[
              3,
              3,
              32,
              32
            ],
            "dtype":"float32"
          },
          {
            "name":"unknown_76",
            "shape":[
              32
            ],
            "dtype":"float32"
          },
          {
            "name":"PartitionedCall/transpose_132/perm",
            "shape":[
              4
            ],
            "dtype":"int32"
          },
          {
            "name":"PartitionedCall/Const_14",
            "shape":[
              4,
              2
            ],
            "dtype":"int32"
          },
          {
            "name":"PartitionedCall/transpose_128/perm",
            "shape":[
              4
            ],
            "dtype":"int32"
          },
          {
            "name":"PartitionedCall/split_37",
            "shape":[
              3,
              3,
              32,
              32
            ],
            "dtype":"float32"
          },
          {
            "name":"unknown_74",
            "shape":[
              32
            ],
            "dtype":"float32"
          },
          {
            "name":"PartitionedCall/transpose_129/perm",
            "shape":[
              4
            ],
            "dtype":"int32"
          },
          {
            "name":"PartitionedCall/transpose_125/perm",
            "shape":[
              4
            ],
            "dtype":"int32"
          },
          {
            "name":"PartitionedCall/split_36",
            "shape":[
              1,
              1,
              128,
              32
            ],
            "dtype":"float32"
          },
          {
            "name":"unknown_72",
            "shape":[
              32
            ],
            "dtype":"float32"
          },
          {
            "name":"PartitionedCall/transpose_126/perm",
            "shape":[
              4
            ],
            "dtype":"int32"
          },
          {
            "name":"PartitionedCall/transpose_119/perm",
            "shape":[
              4
            ],
            "dtype":"int32"
          },
          {
            "name":"PartitionedCall/split_34",
            "shape":[
              1,
              1,
              128,
              64
            ],
            "dtype":"float32"
          },
          {
            "name":"unknown_68",
            "shape":[
              64
            ],
            "dtype":"float32"
          },
          {
            "name":"PartitionedCall/transpose_120/perm",
            "shape":[
              4
            ],
            "dtype":"int32"
          },
          {
            "name":"PartitionedCall/transpose_114/perm",
            "shape":[
              4
            ],
            "dtype":"int32"
          },
          {
            "name":"PartitionedCall/split_33",
            "shape":[
              1,
              1,
              128,
              64
            ],
            "dtype":"float32"
          },
          {
            "name":"unknown_66",
            "shape":[
              64
            ],
            "dtype":"float32"
          },
          {
            "name":"PartitionedCall/transpose_115/perm",
            "shape":[
              4
            ],
            "dtype":"int32"
          },
          {
            "name":"PartitionedCall/transpose_116/perm",
            "shape":[
              4
            ],
            "dtype":"int32"
          },
          {
            "name":"PartitionedCall/Cast_3",
            "shape":[
              2
            ],
            "dtype":"int32"
          },
          {
            "name":"PartitionedCall/transpose_117/perm",
            "shape":[
              4
            ],
            "dtype":"int32"
          },
          {
            "name":"PartitionedCall/onnx_tf_prefix_/model.51/Concat/axis",
            "shape":[
              
            ],
            "dtype":"int32"
          },
          {
            "name":"PartitionedCall/transpose_122/perm",
            "shape":[
              4
            ],
            "dtype":"int32"
          },
          {
            "name":"PartitionedCall/split_35",
            "shape":[
              1,
              1,
              128,
              32
            ],
            "dtype":"float32"
          },
          {
            "name":"unknown_70",
            "shape":[
              32
            ],
            "dtype":"float32"
          },
          {
            "name":"PartitionedCall/transpose_123/perm",
            "shape":[
              4
            ],
            "dtype":"int32"
          },
          {
            "name":"PartitionedCall/onnx_tf_prefix_/model.56/Concat/axis",
            "shape":[
              
            ],
            "dtype":"int32"
          },
          {
            "name":"PartitionedCall/transpose_134/perm",
            "shape":[
              4
            ],
            "dtype":"int32"
          },
          {
            "name":"PartitionedCall/split_39",
            "shape":[
              1,
              1,
              128,
              64
            ],
            "dtype":"float32"
          },
          {
            "name":"unknown_78",
            "shape":[
              64
            ],
            "dtype":"float32"
          },
          {
            "name":"PartitionedCall/transpose_135/perm",
            "shape":[
              4
            ],
            "dtype":"int32"
          },
          {
            "name":"PartitionedCall/Const_16",
            "shape":[
              4,
              2
            ],
            "dtype":"int32"
          },
          {
            "name":"PartitionedCall/transpose_137/perm",
            "shape":[
              4
            ],
            "dtype":"int32"
          },
          {
            "name":"PartitionedCall/split_40",
            "shape":[
              3,
              3,
              64,
              128
            ],
            "dtype":"float32"
          },
          {
            "name":"unknown_80",
            "shape":[
              128
            ],
            "dtype":"float32"
          },
          {
            "name":"PartitionedCall/transpose_138/perm",
            "shape":[
              4
            ],
            "dtype":"int32"
          },
          {
            "name":"PartitionedCall/Const_12",
            "shape":[
              4,
              2
            ],
            "dtype":"int32"
          },
          {
            "name":"PartitionedCall/transpose_108/perm",
            "shape":[
              4
            ],
            "dtype":"int32"
          },
          {
            "name":"PartitionedCall/split_31",
            "shape":[
              3,
              3,
              64,
              64
            ],
            "dtype":"float32"
          },
          {
            "name":"unknown_62",
            "shape":[
              64
            ],
            "dtype":"float32"
          },
          {
            "name":"PartitionedCall/transpose_109/perm",
            "shape":[
              4
            ],
            "dtype":"int32"
          },
          {
            "name":"PartitionedCall/Const_11",
            "shape":[
              4,
              2
            ],
            "dtype":"int32"
          },
          {
            "name":"PartitionedCall/transpose_105/perm",
            "shape":[
              4
            ],
            "dtype":"int32"
          },
          {
            "name":"PartitionedCall/split_30",
            "shape":[
              3,
              3,
              64,
              64
            ],
            "dtype":"float32"
          },
          {
            "name":"unknown_60",
            "shape":[
              64
            ],
            "dtype":"float32"
          },
          {
            "name":"PartitionedCall/transpose_106/perm",
            "shape":[
              4
            ],
            "dtype":"int32"
          },
          {
            "name":"PartitionedCall/transpose_102/perm",
            "shape":[
              4
            ],
            "dtype":"int32"
          },
          {
            "name":"PartitionedCall/split_29",
            "shape":[
              1,
              1,
              256,
              64
            ],
            "dtype":"float32"
          },
          {
            "name":"unknown_58",
            "shape":[
              64
            ],
            "dtype":"float32"
          },
          {
            "name":"PartitionedCall/transpose_103/perm",
            "shape":[
              4
            ],
            "dtype":"int32"
          },
          {
            "name":"PartitionedCall/transpose_96/perm",
            "shape":[
              4
            ],
            "dtype":"int32"
          },
          {
            "name":"PartitionedCall/split_27",
            "shape":[
              1,
              1,
              256,
              128
            ],
            "dtype":"float32"
          },
          {
            "name":"unknown_54",
            "shape":[
              128
            ],
            "dtype":"float32"
          },
          {
            "name":"PartitionedCall/transpose_97/perm",
            "shape":[
              4
            ],
            "dtype":"int32"
          },
          {
            "name":"PartitionedCall/transpose_91/perm",
            "shape":[
              4
            ],
            "dtype":"int32"
          },
          {
            "name":"PartitionedCall/split_26",
            "shape":[
              1,
              1,
              256,
              128
            ],
            "dtype":"float32"
          },
          {
            "name":"unknown_52",
            "shape":[
              128
            ],
            "dtype":"float32"
          },
          {
            "name":"PartitionedCall/transpose_92/perm",
            "shape":[
              4
            ],
            "dtype":"int32"
          },
          {
            "name":"PartitionedCall/transpose_93/perm",
            "shape":[
              4
            ],
            "dtype":"int32"
          },
          {
            "name":"PartitionedCall/Cast_1",
            "shape":[
              2
            ],
            "dtype":"int32"
          },
          {
            "name":"PartitionedCall/transpose_94/perm",
            "shape":[
              4
            ],
            "dtype":"int32"
          },
          {
            "name":"PartitionedCall/onnx_tf_prefix_/model.41/Concat/axis",
            "shape":[
              
            ],
            "dtype":"int32"
          },
          {
            "name":"PartitionedCall/transpose_99/perm",
            "shape":[
              4
            ],
            "dtype":"int32"
          },
          {
            "name":"PartitionedCall/split_28",
            "shape":[
              1,
              1,
              256,
              64
            ],
            "dtype":"float32"
          },
          {
            "name":"unknown_56",
            "shape":[
              64
            ],
            "dtype":"float32"
          },
          {
            "name":"PartitionedCall/transpose_100/perm",
            "shape":[
              4
            ],
            "dtype":"int32"
          },
          {
            "name":"PartitionedCall/onnx_tf_prefix_/model.46/Concat/axis",
            "shape":[
              
            ],
            "dtype":"int32"
          },
          {
            "name":"PartitionedCall/transpose_111/perm",
            "shape":[
              4
            ],
            "dtype":"int32"
          },
          {
            "name":"PartitionedCall/split_32",
            "shape":[
              1,
              1,
              256,
              128
            ],
            "dtype":"float32"
          },
          {
            "name":"unknown_64",
            "shape":[
              128
            ],
            "dtype":"float32"
          },
          {
            "name":"PartitionedCall/transpose_112/perm",
            "shape":[
              4
            ],
            "dtype":"int32"
          },
          {
            "name":"PartitionedCall/onnx_tf_prefix_/model.59/Concat/axis",
            "shape":[
              
            ],
            "dtype":"int32"
          },
          {
            "name":"PartitionedCall/transpose_140/perm",
            "shape":[
              4
            ],
            "dtype":"int32"
          },
          {
            "name":"PartitionedCall/split_41",
            "shape":[
              1,
              1,
              256,
              64
            ],
            "dtype":"float32"
          },
          {
            "name":"unknown_82",
            "shape":[
              64
            ],
            "dtype":"float32"
          },
          {
            "name":"PartitionedCall/transpose_141/perm",
            "shape":[
              4
            ],
            "dtype":"int32"
          },
          {
            "name":"PartitionedCall/onnx_tf_prefix_/model.64/Concat/axis",
            "shape":[
              
            ],
            "dtype":"int32"
          },
          {
            "name":"PartitionedCall/transpose_152/perm",
            "shape":[
              4
            ],
            "dtype":"int32"
          },
          {
            "name":"PartitionedCall/split_45",
            "shape":[
              1,
              1,
              256,
              128
            ],
            "dtype":"float32"
          },
          {
            "name":"unknown_90",
            "shape":[
              128
            ],
            "dtype":"float32"
          },
          {
            "name":"PartitionedCall/transpose_153/perm",
            "shape":[
              4
            ],
            "dtype":"int32"
          },
          {
            "name":"PartitionedCall/Const_19",
            "shape":[
              4,
              2
            ],
            "dtype":"int32"
          },
          {
            "name":"PartitionedCall/transpose_155/perm",
            "shape":[
              4
            ],
            "dtype":"int32"
          },
          {
            "name":"PartitionedCall/split_46",
            "shape":[
              3,
              3,
              128,
              256
            ],
            "dtype":"float32"
          },
          {
            "name":"unknown_92",
            "shape":[
              256
            ],
            "dtype":"float32"
          },
          {
            "name":"PartitionedCall/transpose_156/perm",
            "shape":[
              4
            ],
            "dtype":"int32"
          },
          {
            "name":"PartitionedCall/transpose_82/perm",
            "shape":[
              4
            ],
            "dtype":"int32"
          },
          {
            "name":"PartitionedCall/transpose_83/perm",
            "shape":[
              4
            ],
            "dtype":"int32"
          },
          {
            "name":"PartitionedCall/transpose_80/perm",
            "shape":[
              4
            ],
            "dtype":"int32"
          },
          {
            "name":"PartitionedCall/transpose_81/perm",
            "shape":[
              4
            ],
            "dtype":"int32"
          },
          {
            "name":"PartitionedCall/transpose_78/perm",
            "shape":[
              4
            ],
            "dtype":"int32"
          },
          {
            "name":"PartitionedCall/transpose_79/perm",
            "shape":[
              4
            ],
            "dtype":"int32"
          },
          {
            "name":"PartitionedCall/transpose_76/perm",
            "shape":[
              4
            ],
            "dtype":"int32"
          },
          {
            "name":"PartitionedCall/split_23",
            "shape":[
              1,
              1,
              512,
              256
            ],
            "dtype":"float32"
          },
          {
            "name":"unknown_46",
            "shape":[
              256
            ],
            "dtype":"float32"
          },
          {
            "name":"PartitionedCall/transpose_77/perm",
            "shape":[
              4
            ],
            "dtype":"int32"
          },
          {
            "name":"PartitionedCall/onnx_tf_prefix_/model.34/Concat/axis",
            "shape":[
              
            ],
            "dtype":"int32"
          },
          {
            "name":"PartitionedCall/transpose_85/perm",
            "shape":[
              4
            ],
            "dtype":"int32"
          },
          {
            "name":"PartitionedCall/split_24",
            "shape":[
              1,
              1,
              1024,
              256
            ],
            "dtype":"float32"
          },
          {
            "name":"unknown_48",
            "shape":[
              256
            ],
            "dtype":"float32"
          },
          {
            "name":"PartitionedCall/transpose_86/perm",
            "shape":[
              4
            ],
            "dtype":"int32"
          },
          {
            "name":"PartitionedCall/Const_9",
            "shape":[
              4,
              2
            ],
            "dtype":"int32"
          },
          {
            "name":"PartitionedCall/transpose_67/perm",
            "shape":[
              4
            ],
            "dtype":"int32"
          },
          {
            "name":"PartitionedCall/split_20",
            "shape":[
              3,
              3,
              256,
              256
            ],
            "dtype":"float32"
          },
          {
            "name":"unknown_40",
            "shape":[
              256
            ],
            "dtype":"float32"
          },
          {
            "name":"PartitionedCall/transpose_68/perm",
            "shape":[
              4
            ],
            "dtype":"int32"
          },
          {
            "name":"PartitionedCall/Const_8",
            "shape":[
              4,
              2
            ],
            "dtype":"int32"
          },
          {
            "name":"PartitionedCall/transpose_64/perm",
            "shape":[
              4
            ],
            "dtype":"int32"
          },
          {
            "name":"PartitionedCall/split_19",
            "shape":[
              3,
              3,
              256,
              256
            ],
            "dtype":"float32"
          },
          {
            "name":"unknown_38",
            "shape":[
              256
            ],
            "dtype":"float32"
          },
          {
            "name":"PartitionedCall/transpose_65/perm",
            "shape":[
              4
            ],
            "dtype":"int32"
          },
          {
            "name":"PartitionedCall/split_18",
            "shape":[
              1,
              1,
              256,
              256
            ],
            "dtype":"float32"
          },
          {
            "name":"unknown_36",
            "shape":[
              256
            ],
            "dtype":"float32"
          },
          {
            "name":"PartitionedCall/transpose_62/perm",
            "shape":[
              4
            ],
            "dtype":"int32"
          },
          {
            "name":"PartitionedCall/Const_7",
            "shape":[
              4,
              2
            ],
            "dtype":"int32"
          },
          {
            "name":"PartitionedCall/transpose_50/perm",
            "shape":[
              4
            ],
            "dtype":"int32"
          },
          {
            "name":"PartitionedCall/split_15",
            "shape":[
              3,
              3,
              128,
              128
            ],
            "dtype":"float32"
          },
          {
            "name":"unknown_30",
            "shape":[
              128
            ],
            "dtype":"float32"
          },
          {
            "name":"PartitionedCall/transpose_51/perm",
            "shape":[
              4
            ],
            "dtype":"int32"
          },
          {
            "name":"PartitionedCall/Const_6",
            "shape":[
              4,
              2
            ],
            "dtype":"int32"
          },
          {
            "name":"PartitionedCall/transpose_47/perm",
            "shape":[
              4
            ],
            "dtype":"int32"
          },
          {
            "name":"PartitionedCall/split_14",
            "shape":[
              3,
              3,
              128,
              128
            ],
            "dtype":"float32"
          },
          {
            "name":"unknown_28",
            "shape":[
              128
            ],
            "dtype":"float32"
          },
          {
            "name":"PartitionedCall/transpose_48/perm",
            "shape":[
              4
            ],
            "dtype":"int32"
          },
          {
            "name":"PartitionedCall/split_13",
            "shape":[
              1,
              1,
              128,
              128
            ],
            "dtype":"float32"
          },
          {
            "name":"unknown_26",
            "shape":[
              128
            ],
            "dtype":"float32"
          },
          {
            "name":"PartitionedCall/transpose_45/perm",
            "shape":[
              4
            ],
            "dtype":"int32"
          },
          {
            "name":"PartitionedCall/Const_5",
            "shape":[
              4,
              2
            ],
            "dtype":"int32"
          },
          {
            "name":"PartitionedCall/transpose_33/perm",
            "shape":[
              4
            ],
            "dtype":"int32"
          },
          {
            "name":"PartitionedCall/split_10",
            "shape":[
              3,
              3,
              64,
              64
            ],
            "dtype":"float32"
          },
          {
            "name":"unknown_20",
            "shape":[
              64
            ],
            "dtype":"float32"
          },
          {
            "name":"PartitionedCall/transpose_34/perm",
            "shape":[
              4
            ],
            "dtype":"int32"
          },
          {
            "name":"PartitionedCall/Const_4",
            "shape":[
              4,
              2
            ],
            "dtype":"int32"
          },
          {
            "name":"PartitionedCall/transpose_30/perm",
            "shape":[
              4
            ],
            "dtype":"int32"
          },
          {
            "name":"PartitionedCall/split_9",
            "shape":[
              3,
              3,
              64,
              64
            ],
            "dtype":"float32"
          },
          {
            "name":"unknown_18",
            "shape":[
              64
            ],
            "dtype":"float32"
          },
          {
            "name":"PartitionedCall/transpose_31/perm",
            "shape":[
              4
            ],
            "dtype":"int32"
          },
          {
            "name":"PartitionedCall/split_8",
            "shape":[
              1,
              1,
              64,
              64
            ],
            "dtype":"float32"
          },
          {
            "name":"unknown_16",
            "shape":[
              64
            ],
            "dtype":"float32"
          },
          {
            "name":"PartitionedCall/transpose_28/perm",
            "shape":[
              4
            ],
            "dtype":"int32"
          },
          {
            "name":"PartitionedCall/Const_3",
            "shape":[
              4,
              2
            ],
            "dtype":"int32"
          },
          {
            "name":"PartitionedCall/transpose_16/perm",
            "shape":[
              4
            ],
            "dtype":"int32"
          },
          {
            "name":"PartitionedCall/split_5",
            "shape":[
              3,
              3,
              32,
              32
            ],
            "dtype":"float32"
          },
          {
            "name":"unknown_10",
            "shape":[
              32
            ],
            "dtype":"float32"
          },
          {
            "name":"PartitionedCall/transpose_17/perm",
            "shape":[
              4
            ],
            "dtype":"int32"
          },
          {
            "name":"PartitionedCall/Const_2",
            "shape":[
              4,
              2
            ],
            "dtype":"int32"
          },
          {
            "name":"PartitionedCall/transpose_13/perm",
            "shape":[
              4
            ],
            "dtype":"int32"
          },
          {
            "name":"PartitionedCall/split_4",
            "shape":[
              3,
              3,
              32,
              32
            ],
            "dtype":"float32"
          },
          {
            "name":"unknown_8",
            "shape":[
              32
            ],
            "dtype":"float32"
          },
          {
            "name":"PartitionedCall/transpose_14/perm",
            "shape":[
              4
            ],
            "dtype":"int32"
          },
          {
            "name":"PartitionedCall/transpose_10/perm",
            "shape":[
              4
            ],
            "dtype":"int32"
          },
          {
            "name":"PartitionedCall/split_3",
            "shape":[
              1,
              1,
              64,
              32
            ],
            "dtype":"float32"
          },
          {
            "name":"unknown_6",
            "shape":[
              32
            ],
            "dtype":"float32"
          },
          {
            "name":"PartitionedCall/transpose_11/perm",
            "shape":[
              4
            ],
            "dtype":"int32"
          },
          {
            "name":"PartitionedCall/Const",
            "shape":[
              4,
              2
            ],
            "dtype":"int32"
          },
          {
            "name":"PartitionedCall/transpose_1/perm",
            "shape":[
              4
            ],
            "dtype":"int32"
          },
          {
            "name":"PartitionedCall/split",
            "shape":[
              3,
              3,
              3,
              32
            ],
            "dtype":"float32"
          },
          {
            "name":"unknown_0",
            "shape":[
              32
            ],
            "dtype":"float32"
          },
          {
            "name":"PartitionedCall/transpose_2/perm",
            "shape":[
              4
            ],
            "dtype":"int32"
          },
          {
            "name":"PartitionedCall/Const_1",
            "shape":[
              4,
              2
            ],
            "dtype":"int32"
          },
          {
            "name":"PartitionedCall/transpose_4/perm",
            "shape":[
              4
            ],
            "dtype":"int32"
          },
          {
            "name":"PartitionedCall/split_1",
            "shape":[
              3,
              3,
              32,
              64
            ],
            "dtype":"float32"
          },
          {
            "name":"unknown_2",
            "shape":[
              64
            ],
            "dtype":"float32"
          },
          {
            "name":"PartitionedCall/transpose_5/perm",
            "shape":[
              4
            ],
            "dtype":"int32"
          },
          {
            "name":"PartitionedCall/transpose_7/perm",
            "shape":[
              4
            ],
            "dtype":"int32"
          },
          {
            "name":"PartitionedCall/split_2",
            "shape":[
              1,
              1,
              64,
              32
            ],
            "dtype":"float32"
          },
          {
            "name":"unknown_4",
            "shape":[
              32
            ],
            "dtype":"float32"
          },
          {
            "name":"PartitionedCall/transpose_8/perm",
            "shape":[
              4
            ],
            "dtype":"int32"
          },
          {
            "name":"PartitionedCall/onnx_tf_prefix_/model.6/Concat/axis",
            "shape":[
              
            ],
            "dtype":"int32"
          },
          {
            "name":"PartitionedCall/transpose_19/perm",
            "shape":[
              4
            ],
            "dtype":"int32"
          },
          {
            "name":"PartitionedCall/split_6",
            "shape":[
              1,
              1,
              128,
              64
            ],
            "dtype":"float32"
          },
          {
            "name":"unknown_12",
            "shape":[
              64
            ],
            "dtype":"float32"
          },
          {
            "name":"PartitionedCall/transpose_20/perm",
            "shape":[
              4
            ],
            "dtype":"int32"
          },
          {
            "name":"PartitionedCall/transpose_21/perm",
            "shape":[
              4
            ],
            "dtype":"int32"
          },
          {
            "name":"PartitionedCall/split_7",
            "shape":[
              1,
              1,
              64,
              64
            ],
            "dtype":"float32"
          },
          {
            "name":"unknown_14",
            "shape":[
              64
            ],
            "dtype":"float32"
          },
          {
            "name":"PartitionedCall/transpose_25/perm",
            "shape":[
              4
            ],
            "dtype":"int32"
          },
          {
            "name":"PartitionedCall/onnx_tf_prefix_/model.13/Concat/axis",
            "shape":[
              
            ],
            "dtype":"int32"
          },
          {
            "name":"PartitionedCall/transpose_36/perm",
            "shape":[
              4
            ],
            "dtype":"int32"
          },
          {
            "name":"PartitionedCall/split_11",
            "shape":[
              1,
              1,
              256,
              128
            ],
            "dtype":"float32"
          },
          {
            "name":"unknown_22",
            "shape":[
              128
            ],
            "dtype":"float32"
          },
          {
            "name":"PartitionedCall/transpose_37/perm",
            "shape":[
              4
            ],
            "dtype":"int32"
          },
          {
            "name":"PartitionedCall/transpose_38/perm",
            "shape":[
              4
            ],
            "dtype":"int32"
          },
          {
            "name":"PartitionedCall/split_12",
            "shape":[
              1,
              1,
              128,
              128
            ],
            "dtype":"float32"
          },
          {
            "name":"unknown_24",
            "shape":[
              128
            ],
            "dtype":"float32"
          },
          {
            "name":"PartitionedCall/transpose_42/perm",
            "shape":[
              4
            ],
            "dtype":"int32"
          },
          {
            "name":"PartitionedCall/onnx_tf_prefix_/model.20/Concat/axis",
            "shape":[
              
            ],
            "dtype":"int32"
          },
          {
            "name":"PartitionedCall/transpose_53/perm",
            "shape":[
              4
            ],
            "dtype":"int32"
          },
          {
            "name":"PartitionedCall/split_16",
            "shape":[
              1,
              1,
              512,
              256
            ],
            "dtype":"float32"
          },
          {
            "name":"unknown_32",
            "shape":[
              256
            ],
            "dtype":"float32"
          },
          {
            "name":"PartitionedCall/transpose_54/perm",
            "shape":[
              4
            ],
            "dtype":"int32"
          },
          {
            "name":"PartitionedCall/transpose_55/perm",
            "shape":[
              4
            ],
            "dtype":"int32"
          },
          {
            "name":"PartitionedCall/split_17",
            "shape":[
              1,
              1,
              256,
              256
            ],
            "dtype":"float32"
          },
          {
            "name":"unknown_34",
            "shape":[
              256
            ],
            "dtype":"float32"
          },
          {
            "name":"PartitionedCall/transpose_59/perm",
            "shape":[
              4
            ],
            "dtype":"int32"
          },
          {
            "name":"PartitionedCall/onnx_tf_prefix_/model.27/Concat/axis",
            "shape":[
              
            ],
            "dtype":"int32"
          },
          {
            "name":"PartitionedCall/transpose_70/perm",
            "shape":[
              4
            ],
            "dtype":"int32"
          },
          {
            "name":"PartitionedCall/split_21",
            "shape":[
              1,
              1,
              1024,
              512
            ],
            "dtype":"float32"
          },
          {
            "name":"unknown_42",
            "shape":[
              512
            ],
            "dtype":"float32"
          },
          {
            "name":"PartitionedCall/transpose_71/perm",
            "shape":[
              4
            ],
            "dtype":"int32"
          },
          {
            "name":"PartitionedCall/transpose_73/perm",
            "shape":[
              4
            ],
            "dtype":"int32"
          },
          {
            "name":"PartitionedCall/split_22",
            "shape":[
              1,
              1,
              512,
              256
            ],
            "dtype":"float32"
          },
          {
            "name":"unknown_44",
            "shape":[
              256
            ],
            "dtype":"float32"
          },
          {
            "name":"PartitionedCall/transpose_74/perm",
            "shape":[
              4
            ],
            "dtype":"int32"
          },
          {
            "name":"PartitionedCall/onnx_tf_prefix_/model.36/Concat/axis",
            "shape":[
              
            ],
            "dtype":"int32"
          },
          {
            "name":"PartitionedCall/transpose_88/perm",
            "shape":[
              4
            ],
            "dtype":"int32"
          },
          {
            "name":"PartitionedCall/split_25",
            "shape":[
              1,
              1,
              512,
              256
            ],
            "dtype":"float32"
          },
          {
            "name":"unknown_50",
            "shape":[
              256
            ],
            "dtype":"float32"
          },
          {
            "name":"PartitionedCall/transpose_89/perm",
            "shape":[
              4
            ],
            "dtype":"int32"
          },
          {
            "name":"PartitionedCall/onnx_tf_prefix_/model.67/Concat/axis",
            "shape":[
              
            ],
            "dtype":"int32"
          },
          {
            "name":"PartitionedCall/transpose_158/perm",
            "shape":[
              4
            ],
            "dtype":"int32"
          },
          {
            "name":"PartitionedCall/split_47",
            "shape":[
              1,
              1,
              512,
              128
            ],
            "dtype":"float32"
          },
          {
            "name":"unknown_94",
            "shape":[
              128
            ],
            "dtype":"float32"
          },
          {
            "name":"PartitionedCall/transpose_159/perm",
            "shape":[
              4
            ],
            "dtype":"int32"
          },
          {
            "name":"PartitionedCall/onnx_tf_prefix_/model.72/Concat/axis",
            "shape":[
              
            ],
            "dtype":"int32"
          },
          {
            "name":"PartitionedCall/transpose_170/perm",
            "shape":[
              4
            ],
            "dtype":"int32"
          },
          {
            "name":"PartitionedCall/split_51",
            "shape":[
              1,
              1,
              512,
              256
            ],
            "dtype":"float32"
          },
          {
            "name":"unknown_102",
            "shape":[
              256
            ],
            "dtype":"float32"
          },
          {
            "name":"PartitionedCall/transpose_171/perm",
            "shape":[
              4
            ],
            "dtype":"int32"
          },
          {
            "name":"PartitionedCall/Const_24",
            "shape":[
              4,
              2
            ],
            "dtype":"int32"
          },
          {
            "name":"PartitionedCall/transpose_179/perm",
            "shape":[
              4
            ],
            "dtype":"int32"
          },
          {
            "name":"PartitionedCall/split_54",
            "shape":[
              3,
              3,
              256,
              512
            ],
            "dtype":"float32"
          },
          {
            "name":"unknown_108",
            "shape":[
              512
            ],
            "dtype":"float32"
          },
          {
            "name":"PartitionedCall/transpose_180/perm",
            "shape":[
              4
            ],
            "dtype":"int32"
          },
          {
            "name":"PartitionedCall/transpose_188/perm",
            "shape":[
              4
            ],
            "dtype":"int32"
          },
          {
            "name":"PartitionedCall/split_57",
            "shape":[
              1,
              1,
              512,
              255
            ],
            "dtype":"float32"
          },
          {
            "name":"unknown_114",
            "shape":[
              255
            ],
            "dtype":"float32"
          },
          {
            "name":"PartitionedCall/transpose_189/perm",
            "shape":[
              4
            ],
            "dtype":"int32"
          },
          {
            "name":"PartitionedCall/onnx_tf_prefix_/model.77/Constant_12",
            "shape":[
              5
            ],
            "dtype":"int32"
          },
          {
            "name":"PartitionedCall/Where_4",
            "shape":[
              0,
              1
            ],
            "dtype":"int32"
          },
          {
            "name":"PartitionedCall/Cast_8",
            "shape":[
              1
            ],
            "dtype":"int32"
          },
          {
            "name":"PartitionedCall/GatherV2_4",
            "shape":[
              0
            ],
            "dtype":"int32"
          },
          {
            "name":"PartitionedCall/zeros_4",
            "shape":[
              
            ],
            "dtype":"int32"
          },
          {
            "name":"PartitionedCall/onnx_tf_prefix_/model.77/Transpose_2/perm",
            "shape":[
              5
            ],
            "dtype":"int32"
          },
          {
            "name":"PartitionedCall/Const_32",
            "shape":[
              3
            ],
            "dtype":"int32"
          },
          {
            "name":"PartitionedCall/onnx_tf_prefix_/model.77/Split_2/split_dim",
            "shape":[
              
            ],
            "dtype":"int32"
          },
          {
            "name":"PartitionedCall/onnx_tf_prefix_/model.77/Concat_2/axis",
            "shape":[
              
            ],
            "dtype":"int32"
          },
          {
            "name":"PartitionedCall/onnx_tf_prefix_/model.77/Constant_17",
            "shape":[
              3
            ],
            "dtype":"int32"
          },
          {
            "name":"PartitionedCall/Where_5",
            "shape":[
              0,
              1
            ],
            "dtype":"int32"
          },
          {
            "name":"PartitionedCall/Cast_9",
            "shape":[
              1
            ],
            "dtype":"int32"
          },
          {
            "name":"PartitionedCall/GatherV2_5",
            "shape":[
              0
            ],
            "dtype":"int32"
          },
          {
            "name":"PartitionedCall/zeros_5",
            "shape":[
              
            ],
            "dtype":"int32"
          },
          {
            "name":"PartitionedCall/onnx_tf_prefix_/model.77/Concat_3/axis",
            "shape":[
              
            ],
            "dtype":"int32"
          }
        ]
      }
    ]
  }